model_cache/BasicNN_bffbd99361f5.pt (torch, 61905 bytes, 14 tensors)

network.0.weight f4 [128, 33]
0	0x3e03fa5e	0.12888476
1	0x3e2c5d97	0.16832577
2	0x3e4711c7	0.19440375
3	0xbd42dc36	-0.04757329
4	0x3c694bb2	0.014239239
5	0xbdddf3b8	-0.10837501
6	0x3e79e216	0.24402651
7	0xbdc82409	-0.09772498
8	0xbd012aa6	-0.031534813
9	0x3bc4af27	0.006002325
10	0xbe3d53c1	-0.18488981
11	0x3bdab7e6	0.0066747544
12	0xbeac3746	-0.3363592
13	0x3d6f7fbf	0.058471438
14	0x3e0e8f3d	0.13921829
15	0xbde5c3be	-0.112189755
16	0xbe17971d	-0.14803739
17	0x3b5668dd	0.0032716312
18	0xbd9b67e9	-0.07588179
19	0xbc807ee2	-0.015685502
20	0xbc1b9fee	-0.009498579
21	0xbce1243e	-0.027483102
22	0x3e3f9067	0.18707429
23	0x3e1b1f8d	0.15148754
24	0xbd98a15e	-0.07452653
25	0x3df21d85	0.11822037
26	0xbe989eae	-0.29808563
27	0x3eafd9f4	0.34345973
28	0x3e3eac21	0.1862035
29	0xbe27a09d	-0.16369863
30	0xbe8ba73a	-0.2727602
31	0x3e0d2aa5	0.13785799
32	0x3ce7e087	0.028305305
33	0x3e4c13e5	0.19929464
34	0x3ea4cfd9	0.32189825
35	0xbc99680a	-0.018726368
36	0xbbc08d90	-0.0058762506
37	0x3d9a6711	0.075391896
38	0xbdee99a3	-0.11650398
39	0x3cbc48f2	0.022984002
40	0xbe6da050	-0.23205686
41	0xbe6c390e	-0.2306864
42	0x3e1f477c	0.15554613
43	0xbdf08675	-0.11744396
44	0x3dd32cb5	0.103112616
45	0x3d965afb	0.07341572
46	0xbe3a7f97	-0.18212734
47	0x3e32ecee	0.17473194
48	0x3e3e8f12	0.18609264
49	0xbe308b0f	-0.17240547
50	0x3da26ee6	0.079313084
51	0xbca40f3b	-0.020026794
52	0xbe1657ed	-0.14681979
53	0x3de7ab1d	0.11311934
54	0xbe8d5e77	-0.27611133
55	0x3e1b3551	0.15157057
56	0xbe5fea54	-0.21866733
57	0x3d1a2311	0.0376311
58	0xbe8bef5e	-0.2733106
59	0xbd4b6657	-0.049658146
60	0xbd02d605	-0.031942386
61	0x3c277341	0.01022035
62	0x3dea4c27	0.11440306
63	0xbe341bb1	-0.17588688
64	0x3ead0a5f	0.33796975
65	0xbe675b79	-0.22593488
66	0x3da478d8	0.080308616
67	0xbcafe2b8	-0.021470413
68	0xbd2025ab	-0.039098423
69	0xbe4ae735	-0.19814761
70	0xbe01ebed	-0.12687655
71	0xbe239f8a	-0.15978828
72	0x3df73a1a	0.12071629
73	0x3e0dcb48	0.13847077
74	0xbe1a8e0d	-0.1509325
75	0xbe8a1089	-0.2696574
76	0x3def2638	0.116772115
77	0xbd2ee0da	-0.042694904
78	0xbe8eea67	-0.2791321
79	0x3e29b0da	0.1657137
80	0x3dc1fe63	0.094723485
81	0xbdb660c8	-0.08905178
82	0xbe922e32	-0.2855087
83	0xbb8eded6	-0.00436006
84	0xbd98e722	-0.0746596
85	0xbc4837f9	-0.012220376
86	0xbe1fa028	-0.15588439
87	0x3ebedb1f	0.3727655
88	0x3db3459a	0.0875351
89	0xbe00bb77	-0.12571512
90	0x3ddd5add	0.108083464
91	0x3de364e2	0.11103226
92	0xbe464ad8	-0.19364488
93	0x3cb57703	0.022151476
94	0xbe09a67c	-0.13442415
95	0x3c837c34	0.016050436
96	0xbdde1b50	-0.10845053
97	0xbe2fc0d6	-0.17163405
98	0x3e439590	0.19100022
99	0x3d8ab27e	0.06772326
100	0x3ac6408c	0.0015125438
101	0xbe189444	-0.14900309
102	0x3df8cf80	0.121489525
103	0xbd6eec70	-0.058330953
104	0xbc1f024a	-0.009705136
105	0xbca5974c	-0.020213746
106	0x3d578b70	0.052623212
107	0xbef15f52	-0.47143036
108	0x3d9b0058	0.07568425
109	0xbe22c591	-0.15895678
110	0x3b1d8fd7	0.0024042034
111	0xbea14315	-0.31496492
112	0x3e5eabf3	0.21745281
113	0x3e13dcb0	0.14439654
114	0x3e0a141d	0.13484235
115	0x3e6c2773	0.23061924
116	0x3db3319e	0.08749698
117	0xbc588430	-0.01321511
118	0x3db0a1b5	0.08624593
119	0x3e3fa282	0.18714336
120	0x3e6162f4	0.22010404
121	0xbd3146d7	-0.04328045
122	0xbe56d3d6	-0.20979246
123	0xbe882c69	-0.26596382
124	0x3d61b5b1	0.055104915
125	0xbeabe9d4	-0.33576834
126	0x3de3c3fb	0.11121365
127	0x3bdd1693	0.006747076
128	0xbe23662d	-0.15956946
129	0xbe24961a	-0.16072884
130	0xbe105c92	-0.14097813
131	0xbdd87c54	-0.10570589
132	0x3df77341	0.1208253
133	0xbc01c098	-0.007919453
134	0xbca3f87b	-0.020015946
135	0x3d8ff810	0.07029736
136	0xbe276272	-0.16346148
137	0xbdf20315	-0.11816994
138	0x3e99f8df	0.30072686
139	0xbd9e2a22	-0.0772288
140	0x3db38002	0.0876465
141	0x3d1a4eb3	0.03767271
142	0x3e69bfc2	0.22827056
143	0xbd0017d2	-0.031272717
144	0x3ccf4cb9	0.025305139
145	0x3d71f116	0.059067808
146	0x3d658eef	0.056044515
147	0x3e36f348	0.17866242
148	0x3ce49ce5	0.027906844
149	0x3e36dd46	0.17857847
150	0x3e20f72c	0.15719289
151	0xbeb31fbb	-0.34985146
152	0xbde8e1f2	-0.11371221
153	0x3d1e8eb4	0.03871031
154	0xbdb59410	-0.08866131
155	0x3e121386	0.1426526
156	0x3c1d806f	0.0096131405
157	0xbe2b3490	-0.1671927
158	0x3eab905a	0.3350857
159	0x3e87c4a6	0.26517218
160	0x3e99ebb1	0.3006263
161	0xbd4414f0	-0.04787153
162	0x3e147e01	0.14501192
163	0xbdb2c889	-0.08729655
164	0x3e13d55f	0.14436863
165	0xbd5edea5	-0.05441155
166	0xbe22824e	-0.1587002
167	0x3dfa9701	0.12235833
168	0xbe3147d1	-0.17312552
169	0xbd9525f9	-0.07282633
170	0x3db573f3	0.08860006
171	0x3dbb83f5	0.09156028
172	0xbd0fbb8d	-0.03509097
173	0x3d557a15	0.05211838
174	0xbe499387	-0.19685183
175	0x3e566577	0.20937143
176	0xbc959b92	-0.018262658
177	0xbdfce07b	-0.12347504
178	0xbe4dcd20	-0.2009778
179	0xbc088160	-0.008331627
180	0x3d227bf4	0.039668992
181	0x3ea2c483	0.31790552
182	0xbe90b25e	-0.28261083
183	0x3e3dfe5f	0.18554066
184	0xbd08be34	-0.033384517
185	0x3ea3f4a4	0.32022583
186	0xbd671583	-0.056417
187	0xbcafed9f	-0.021475611
188	0xbd55d838	-0.052208155
189	0xbd719829	-0.058983
190	0xbdd30dd7	-0.10305374
191	0xbd3ccc81	-0.046093468
192	0xbef0d5a4	-0.47037995
193	0x3d9f4104	0.077760726
194	0x3d89fc1e	0.06737541
195	0x3e760c6d	0.24028178
196	0xbda1ffb0	-0.07910097
197	0x3d2d7543	0.042348158
198	0xbd529b75	-0.051417787
199	0x3e91c98b	0.28474078
200	0x3d25e7b8	0.040504187
201	0xbc5d69e3	-0.013514015
202	0x3dcef364	0.10105017
203	0xbe383d46	-0.17992124
204	0xbd757d6d	-0.05993407
205	0x3e131fdf	0.14367627
206	0xbe47684a	-0.19473377
207	0x3dbf2778	0.093337
208	0x3e7ada00	0.24497223
209	0x3e3faf02	0.18719104
210	0x3d9d4df5	0.07680885
211	0xbd912d0e	-0.070886716
212	0x3e8425d5	0.25810114
213	0x3dca78f0	0.09886348
214	0x3e1a321c	0.15058178
215	0xbdbe102a	-0.09280427
216	0xbe8f0c40	-0.27939034
217	0x3e299269	0.16559757
218	0xbe467716	-0.19381365
219	0x3e05b354	0.1305669
220	0x3db24349	0.0870424
221	0x3e16edbf	0.1473913
222	0xbe42971b	-0.19002955
223	0x3df78e76	0.12087719
224	0x39f8aad8	0.00047429535
225	0x3eac3180	0.33631516
226	0x3cdea92c	0.027180277
227	0xbda187cd	-0.0788723
228	0xbe34a9cc	-0.17642897
229	0xbe07c543	-0.13258843
230	0x3e45518e	0.19269392
231	0xbd3282e2	-0.04358185
232	0xbcf57336	-0.029962163
233	0xbe1503f1	-0.14552285
234	0x3da0fc4c	0.07860622
235	0xbadf3f13	-0.0017032347
236	0xbc008b84	-0.007845763
237	0xbd1d50af	-0.038407024
238	0x3e330d49	0.17485537
239	0xbc4ffc9c	-0.012694504
240	0x3bd317d5	0.00644205
241	0xbd242ad0	-0.04007989
242	0x3d244931	0.040108863
243	0x3cdb3a9d	0.026761347
244	0x3e040647	0.1289302
245	0xbd1b2314	-0.03787525
246	0xbd7e47ee	-0.062080316
247	0xbe13b1d1	-0.144233
248	0x3d8338d0	0.064073205
249	0x3d47489f	0.04865324
250	0xbe380312	-0.17969921
251	0xbd835ba8	-0.064139664
252	0xbca4ee87	-0.02013327
253	0x3e929f8f	0.2863736
254	0xbe8d63d3	-0.27615222
255	0x3d88e1d0	0.06683695

network.0.bias f4 [128]
0	0xbe1b3d4b	-0.151601
1	0x3d9cadb7	0.07650321
2	0xbdfa81a4	-0.12231758
3	0xbd34e861	-0.044166926
4	0xbd86f695	-0.065900005
5	0x3dce4015	0.100708164
6	0x3e171390	0.14753556
7	0xbd8ab5ea	-0.067729786
8	0x3d6a5e48	0.05721882
9	0xbd215864	-0.039390936
10	0x3de0b3d0	0.109717965
11	0xbe0e2cde	-0.13884303
12	0x3e38643b	0.18006985
13	0xbe29b787	-0.16573916
14	0xbdd0deff	-0.10198783
15	0xbd9c9805	-0.07646183
16	0x3daa8001	0.08325196
17	0xbcfb3ba8	-0.030668095
18	0xbe4471e2	-0.19184068
19	0x3dad6c6b	0.08467945
20	0xbd2c0ab2	-0.042002387
21	0xbd803fc1	-0.0626216
22	0xbd0613cc	-0.032733724
23	0x3e2d3a9d	0.1691689
24	0x3de07a9e	0.10960887
25	0xbe02aa61	-0.12760307
26	0xbda9c398	-0.0828926
27	0xbca313e4	-0.019906946
28	0xbe1ce1af	-0.15320466
29	0xbac79b2d	-0.0015228741
30	0xbe1aa523	-0.15102057
31	0x3cf32212	0.029679332
32	0xbbdf73bf	-0.006819218
33	0x3d1999a2	0.03750003
34	0xbdd3d66b	-0.10343631
35	0x3d29da64	0.04146804
36	0xbddcaab2	-0.10774745
37	0xbdd81626	-0.105510995
38	0xbca50eef	-0.020148722
39	0x3d78f8d9	0.060784195
40	0x3e09859f	0.13429879
41	0x3e26b51f	0.1628003
42	0x3d38adb8	0.045087546
43	0x3d972230	0.073795676
44	0x3daa81a5	0.08325509
45	0xbd4e924a	-0.05043248
46	0xbcd12443	-0.025529986
47	0x3d121b08	0.03567031
48	0xbdc6aa05	-0.097003974
49	0xbd8748b1	-0.06605662
50	0x3b138fe9	0.0022516197
51	0x3e1ee08a	0.15515342
52	0x3cadb028	0.021202162
53	0xbd5bd295	-0.053667624
54	0xbda0d1ca	-0.07852514
55	0x3d172127	0.03689685
56	0x3db8893b	0.0901055
57	0x3d8b29ce	0.06795083
58	0x3e1cded3	0.15319376
59	0x3d994a24	0.07484844
60	0xbd03f0bd	-0.032212008
61	0x3db1204a	0.08648737
62	0xbe2ed297	-0.17072521
63	0x3d8fd1eb	0.070224606
64	0xbdb0b304	-0.086278945
65	0xbe0c2e78	-0.13689601
66	0x3d8050f7	0.06265443
67	0xbc85d251	-0.016335638
68	0x3cde58f1	0.02714202
69	0x3e21e0ee	0.1580846
70	0x3d72cb16	0.05927571
71	0xbcebc2c0	-0.028779387
72	0x3dc2fbd6	0.0952069
73	0xbe1769fe	-0.14786527
74	0x3e0206bd	0.12697883
75	0x3bff43d7	0.0077900696
76	0x3e1d484b	0.15359609
77	0x3bf4bc92	0.0074687684
78	0xbdd8aaad	-0.10579429
79	0x3da6dfff	0.081481926
80	0x3ca451d3	0.020058548
81	0x3e16fe20	0.14745378
82	0xbdf9a751	-0.12190116
83	0xbda28fdc	-0.07937595
84	0x3db85889	0.09001262
85	0x3ce27235	0.027642349
86	0xbdafaddd	-0.08578084
87	0x3e0a9b80	0.13535881
88	0xbe2778b7	-0.16354643
89	0x3de7292e	0.11287151
90	0xbe018450	-0.1264813
91	0xbd4e463a	-0.050359942
92	0x3d89c197	0.067263775
93	0x3daeed0b	0.08541306
94	0xbd225098	-0.03962764
95	0xbdfe131e	-0.1240599
96	0x3ddb09d1	0.10695232
97	0x3e184f79	0.14874066
98	0x3ce017b2	0.027355049
99	0xbd94da58	-0.07268208
100	0x3dff6ede	0.12472318
101	0x3e0546fd	0.13015361
102	0xbe1a50a9	-0.15069832
103	0x3e00c0a5	0.12573488
104	0xbde961fa	-0.11395641
105	0x3bbb28ee	0.0057116663
106	0x3dd16602	0.102245346
107	0x3d4d12cf	0.050066765
108	0xbdea238f	-0.114325635
109	0xbd7cda39	-0.06173155
110	0x3e1d9637	0.15389334
111	0x3d415bfb	0.04720686
112	0xbe3c8c00	-0.18412781
113	0xbd0fb8af	-0.035088237
114	0x3d12fb4f	0.035884198
115	0xbe10a3e6	-0.14125022
116	0x3d774dae	0.060376815
117	0xbdd5da71	-0.10442055
118	0xbe27d8bd	-0.16391273
119	0x3b908fff	0.004411697
120	0x3e43178c	0.19051951
121	0xbdc3eb61	-0.09566379
122	0x3dcd1b78	0.10015005
123	0x3cafb34e	0.021447804
124	0xbe3775d1	-0.17916037
125	0xbe063dec	-0.13109559
126	0x3d7c8dfc	0.061658844
127	0xbd728cd1	-0.059216324

network.1.weight f4 [128]
0	0x3f5af125	0.8552421
1	0x3f6f78d5	0.9354375
2	0x3f719839	0.943729
3	0x3f71d41a	0.94464266
4	0x3f5e029a	0.8672272
5	0x3f4cb113	0.79957694
6	0x3f443bd8	0.76653814
7	0x3f70684f	0.9390916
8	0x3f3ff78c	0.749871
9	0x3f69159d	0.91048604
10	0x3f6720f3	0.9028465
11	0x3f46c4f5	0.7764428
12	0x3f5d577e	0.8646163
13	0x3f511fe7	0.81689304
14	0x3f6b2c4c	0.91864467
15	0x3f561461	0.83624846
16	0x3f4a964f	0.791356
17	0x3f43c84b	0.764775
18	0x3f73acf5	0.95185786
19	0x3f5b191f	0.85585207
20	0x3f75c853	0.96008795
21	0x3f4ddb53	0.8041279
22	0x3f684fed	0.9074696
23	0x3f56e494	0.8394253
24	0x3f574f87	0.84105724
25	0x3f6ba695	0.9205106
26	0x3f3fa2d1	0.74857813
27	0x3f5ce963	0.8629362
28	0x3f64197b	0.8910138
29	0x3f64db56	0.8939718
30	0x3f749643	0.9554178
31	0x3f4b2dc8	0.7936673
32	0x3f496d39	0.78682286
33	0x3f4aa15e	0.79152477
34	0x3f519b94	0.8187802
35	0x3f42e285	0.7612689
36	0x3f405acf	0.7513856
37	0x3f626a8f	0.88443846
38	0x3f5bf425	0.8591941
39	0x3f423fe5	0.75878745
40	0x3f6a6ec7	0.9157528
41	0x3f5dff58	0.8671775
42	0x3f65720e	0.8962716
43	0x3f52ede7	0.8239426
44	0x3f71a1e1	0.9438763
45	0x3f5669cb	0.8375518
46	0x3f71bced	0.944289
47	0x3f669ef8	0.9008632
48	0x3f57bdd9	0.8427406
49	0x3f6e56a1	0.93100935
50	0x3f4a2833	0.7896759
51	0x3f4b0b66	0.7931427
52	0x3f570dba	0.8400532
53	0x3f3cfd67	0.7382416
54	0x3f540a3a	0.82828104
55	0x3f55d9cf	0.83535475
56	0x3f453ab8	0.7704272
57	0x3f6a96c0	0.91636276
58	0x3f495817	0.7865004
59	0x3f485863	0.7825987
60	0x3f581506	0.8440708
61	0x3f547d21	0.8300343
62	0x3f58ba65	0.84659415
63	0x3f654a57	0.8956656
64	0x3f43f206	0.76541173
65	0x3f5620fd	0.83644086
66	0x3f5675b5	0.83773357
67	0x3f556b82	0.8336717
68	0x3f6ee6c8	0.93320894
69	0x3f568101	0.83790594
70	0x3f664c52	0.89960206
71	0x3f449c35	0.76800853
72	0x3f4997c6	0.7874721
73	0x3f67ca53	0.905431
74	0x3f625c9f	0.8842258
75	0x3f63ee10	0.8903513
76	0x3f5febbf	0.87469095
77	0x3f5c5b9e	0.86077297
78	0x3f5b99a7	0.8578133
79	0x3f6a0d60	0.9142666
80	0x3f5cca8a	0.8624655
81	0x3f3b81cb	0.73244923
82	0x3f3f2da7	0.74679035
83	0x3f551b7f	0.8324508
84	0x3f583a89	0.8446432
85	0x3f48b479	0.7840038
86	0x3f4f9f5e	0.8110255
87	0x3f5c3286	0.8601459
88	0x3f5209c9	0.8204618
89	0x3f63d00e	0.8898934
90	0x3f7de0d8	0.9917121
91	0x3f516318	0.8179183
92	0x3f49ae35	0.78781444
93	0x3f48a775	0.7838052
94	0x3f59390c	0.8485267
95	0x3f664f39	0.89964634
96	0x3f467885	0.7752765
97	0x3f7b2d21	0.98115736
98	0x3f6019b2	0.8753921
99	0x3f5c805a	0.8613335
100	0x3f57ce13	0.8429882
101	0x3f623c23	0.8837301
102	0x3f5fcca6	0.87421644
103	0x3f5c2dbb	0.8600728
104	0x3f640353	0.8906757
105	0x3f554e01	0.8332215
106	0x3f6d3053	0.9265186
107	0x3f6bb730	0.92076397
108	0x3f51613a	0.8178898
109	0x3f331cef	0.69966024
110	0x3f70792d	0.939349
111	0x3f419127	0.7561211
112	0x3f416a80	0.7555313
113	0x3f6d581e	0.9271258
114	0x3f4631b5	0.77419597
115	0x3f3d9d83	0.7406847
116	0x3f71ea69	0.94498307
117	0x3f603e4f	0.87595075
118	0x3f50a0b6	0.81495225
119	0x3f56a2fb	0.8384244
120	0x3f5f6d46	0.87276113
121	0x3f53cd7f	0.8273544
122	0x3f43fca7	0.7655739
123	0x3f6dadc4	0.9284327
124	0x3f68c15e	0.90920055
125	0x3f5cdcab	0.8627421
126	0x3f68c988	0.9093251
127	0x3f4d1d39	0.80122715

network.1.bias f4 [128]
0	0xbf448a5b	-0.76773614
1	0xbf284105	-0.6572421
2	0xbf2a4740	-0.6651497
3	0xbedcadce	-0.43101352
4	0xbeff67af	-0.49883792
5	0xbf13f8c1	-0.57801443
6	0xbf00cf62	-0.5031644
7	0xbef3a4fd	-0.47586814
8	0xbee59bf0	-0.44845533
9	0xbf1c1452	-0.60968506
10	0xbf09002f	-0.53515905
11	0xbf1d2c26	-0.6139549
12	0xbf183631	-0.5945769
13	0xbf2048c6	-0.62611043
14	0xbf0e9f18	-0.5571151
15	0xbf0c3f40	-0.5478401
16	0xbf104efc	-0.5637052
17	0xbf2e5b3d	-0.6810797
18	0xbf1e105a	-0.617437
19	0xbf25dad6	-0.6478704
20	0xbefc8277	-0.49318287
21	0xbe973a46	-0.29536647
22	0xbee2d2b8	-0.4430139
23	0xbf2572d1	-0.6462832
24	0xbf39d192	-0.72585404
25	0xbf191a62	-0.5980588
26	0xbed1d773	-0.40984687
27	0xbf11b1ff	-0.56912225
28	0xbefb0b02	-0.49031836
29	0xbf271375	-0.65264064
30	0xbf29d669	-0.6634279
31	0xbf2b1497	-0.6682829
32	0xbf1770d6	-0.5915655
33	0xbf20de97	-0.62839645
34	0xbf1f34df	-0.6219005
35	0xbea32b66	-0.31869048
36	0xbedf9582	-0.43668753
37	0xbf0a8723	-0.5411245
38	0xbeb2b1bb	-0.34901223
39	0xbf0142fb	-0.5049283
40	0xbf0e93c3	-0.55694216
41	0xbef2993f	-0.47382542
42	0xbebc89de	-0.36823934
43	0xbf484e7d	-0.78244764
44	0xbeeddf7a	-0.46459562
45	0xbee04666	-0.4380371
46	0xbf31317a	-0.6921612
47	0xbf472e74	-0.77805257
48	0xbefc7249	-0.49305943
49	0xbf1cc117	-0.6123213
50	0xbf046e77	-0.51731056
51	0xbf02c7ee	-0.5108632
52	0xbf116823	-0.56799525
53	0xbedde9b3	-0.4334236
54	0xbebfd62b	-0.37468085
55	0xbf15af8e	-0.58471
56	0xbf09c67a	-0.53818476
57	0xbf08e72e	-0.5347775
58	0xbf0adc59	-0.54242474
59	0xbf2d6568	-0.6773286
60	0xbf03116f	-0.51198477
61	0xbf02b241	-0.51053244
62	0xbf165575	-0.5872415
63	0xbf054e71	-0.5207282
64	0xbf31f6e1	-0.6951733
65	0xbf0034d5	-0.50080615
66	0xbed3a14b	-0.41333994
67	0xbf129c32	-0.57269585
68	0xbf0cd130	-0.55006695
69	0xbf0b6972	-0.5445777
70	0xbf4ebdf2	-0.80758584
71	0xbf1a7aa7	-0.603434
72	0xbec4796f	-0.38373896
73	0xbf230ffa	-0.63696253
74	0xbf330e78	-0.6994395
75	0xbea00790	-0.3125577
76	0xbf16eaad	-0.58951837
77	0xbefd9e78	-0.49534965
78	0xbec55bcc	-0.38546598
79	0xbf32c5e9	-0.69833237
80	0xbf18739e	-0.5955142
81	0xbf16ad44	-0.5885813
82	0xbee28d2e	-0.44248337
83	0xbf02f6af	-0.5115766
84	0xbeba01a4	-0.36329377
85	0xbec3c6fb	-0.38237748
86	0xbeedd2a8	-0.4644978
87	0xbf19195c	-0.5980432
88	0xbf0361bb	-0.51321
89	0xbf190391	-0.59771067
90	0xbf1db515	-0.61604434
91	0xbf093a66	-0.53604734
92	0xbf1435ec	-0.5789478
93	0xbeff3e92	-0.49852425
94	0xbef7e1cd	-0.4841446
95	0xbecbfb60	-0.3984022
96	0xbee93724	-0.4554988
97	0xbed25036	-0.4107682
98	0xbed5763c	-0.41691768
99	0xbf0f8d58	-0.5607505
100	0xbefff9ea	-0.49995357
101	0xbef6937f	-0.48159406
102	0xbf077d96	-0.52926004
103	0xbeff94f6	-0.49918336
104	0xbf0182d0	-0.5059023
105	0xbf1c3909	-0.6102453
106	0xbf211e06	-0.6293644
107	0xbef5c178	-0.47999167
108	0xbf08a72c	-0.53380084
109	0xbf1e97b6	-0.6195024
110	0xbf31ebea	-0.695006
111	0xbed31419	-0.4122627
112	0xbec00a31	-0.37507775
113	0xbf2a729f	-0.6658115
114	0xbef3fc42	-0.47653395
115	0xbea26d5b	-0.31724057
116	0xbf003127	-0.50075
117	0xbf0f3335	-0.5593751
118	0xbed56369	-0.41677406
119	0xbe86700f	-0.2625737
120	0xbf2dd1dc	-0.67898345
121	0xbf0f4198	-0.55959463
122	0xbf24661e	-0.6421832
123	0xbed2375c	-0.4105786
124	0xbf229598	-0.6350951
125	0xbeb858dc	-0.36005294
126	0xbf107e7a	-0.5644299
127	0xbf02f1ee	-0.51150405

network.1.running_mean f4 [128]
0	0xbe00c7d6	-0.12576231
1	0x3de9e951	0.11421455
2	0xbe0f8512	-0.14015606
3	0xbd25b6c1	-0.04045749
4	0xbda8ccfa	-0.08242221
5	0x3d82858f	0.063731305
6	0x3e1fa34e	0.1558964
7	0xbcf99b8f	-0.030469684
8	0x3d2756ce	0.040854268
9	0x3b6a1b4a	0.0035721832
10	0x3dc43e40	0.09582186
11	0xbdfb81a5	-0.12280587
12	0x3e383bb3	0.17991523
13	0xbe337d8b	-0.1752836
14	0xbdcfc452	-0.10144867
15	0xbd651d24	-0.055935994
16	0x3d067dfb	0.032834988
17	0xbacc514c	-0.0015588193
18	0xbe4eb1a1	-0.20184948
19	0x3d8f4ac8	0.06996685
20	0xbce2cbc8	-0.027685061
21	0xbd309d31	-0.04311866
22	0xbd6d65f3	-0.057958554
23	0x3e4478f1	0.1918676
24	0x3db2cf22	0.08730914
25	0xbe01bb3a	-0.12669078
26	0xbd7a3a95	-0.061091024
27	0x3baf1da5	0.00534411
28	0xbe27b041	-0.1637583
29	0xbcc084fd	-0.023500914
30	0xbe071293	-0.13190679
31	0x3d677489	0.05650762
32	0xbc77980f	-0.015111937
33	0x3ceb1d62	0.028700534
34	0xbde7ef57	-0.11324947
35	0x3c69807c	0.0142518245
36	0xbdd12508	-0.10212141
37	0xbdebea8d	-0.115193464
38	0x3c97b810	0.018520385
39	0x3c7045de	0.014665095
40	0x3e05a6f4	0.13051969
41	0x3e139a94	0.14414436
42	0x3d9d3fef	0.0767821
43	0x3cf8cd87	0.03037144
44	0x3db5f1dd	0.088840224
45	0xbd7f03be	-0.06225943
46	0xbd184a6d	-0.037180353
47	0x3cde26b7	0.02711807
48	0xbdc4540f	-0.095863454
49	0xbd802999	-0.06257934
50	0xbbe54d11	-0.0069977124
51	0x3dbaeacf	0.091268174
52	0x3cfce979	0.030873047
53	0xbd3b354d	-0.04570513
54	0xbdd86856	-0.105667755
55	0x3cae0a74	0.021245219
56	0x3d9edbdc	0.077567786
57	0x3dae5ad3	0.08513417
58	0x3e410368	0.18848956
59	0x3d8168b0	0.06318796
60	0xbbdef8ce	-0.006804562
61	0x3d9647f5	0.073379435
62	0xbe22af2b	-0.15887134
63	0x3d944be6	0.07241039
64	0xbd86c1d4	-0.065799385
65	0xbe0d7b7c	-0.13816637
66	0x3db1c90c	0.08680925
67	0xbcff90df	-0.03119701
68	0x3c839ffc	0.016067497
69	0x3e352ad0	0.17692113
70	0x3d8be899	0.06831474
71	0xbca30a4d	-0.019902373
72	0x3da3ea73	0.08003702
73	0xbe2d05a5	-0.16896684
74	0x3e146dca	0.14495006
75	0xbcc3a5c1	-0.023882749
76	0x3e20cbc0	0.15702724
77	0x3cef9ecb	0.029250523
78	0xbdf44d36	-0.11928789
79	0x3da1b47a	0.07895751
80	0xbbacba64	-0.005271243
81	0x3e1a926e	0.15094921
82	0xbe1d6e90	-0.15374207
83	0xbdda2e9a	-0.1065342
84	0x3d62bfc8	0.055358678
85	0x3c0112e2	0.007878037
86	0xbda89ca6	-0.08233003
87	0x3e0978da	0.13425007
88	0xbe4f8c13	-0.20268278
89	0x3df4c52c	0.1195167
90	0xbd7dca53	-0.06196053
91	0xbd4e5933	-0.050378036
92	0x3d990288	0.07471186
93	0x3d989519	0.07450313
94	0xbdac91ef	-0.08426272
95	0xbe05d774	-0.1307047
96	0x3dcee61d	0.101024844
97	0x3e226810	0.15860009
98	0xbbf1f5eb	-0.007384052
99	0xbdd57274	-0.10422221
100	0x3dd81f13	0.10552802
101	0x3ded9168	0.116
102	0xbe30390b	-0.1720926
103	0x3df29d39	0.11846394
104	0xbd3daef0	-0.04630941
105	0x3c893715	0.016749898
106	0x3da0e982	0.07857038
107	0x3d89f536	0.067362234
108	0xbde0170f	-0.10941898
109	0xbd79a43c	-0.06094764
110	0x3e2a3270	0.16620803
111	0x3d88e8c6	0.06685023
112	0xbe525fcb	-0.20544355
113	0xbca27887	-0.019832863
114	0x3cb1281d	0.021625573
115	0xbe1287a5	-0.14309557
116	0x3d429e34	0.047514156
117	0xbdd0f25c	-0.102024764
118	0xbe1a59bb	-0.15073292
119	0x3c2eec23	0.010676417
120	0x3e5894c7	0.21150504
121	0xbdc2f2ff	-0.09519004
122	0x3da4b3ac	0.08042082
123	0x3d1aaaf9	0.03776071
124	0xbe3860a5	-0.18005617
125	0xbe12f1d2	-0.1435006
126	0x3d5804dc	0.05273901
127	0xbdc41fa0	-0.095763445

network.1.running_var f4 [128]
0	0x3f453d2e	0.7704648
1	0x3f71f62d	0.9451626
2	0x3f4ed8dc	0.8079965
3	0x3f39009f	0.7226657
4	0x3f18c98a	0.59682524
5	0x3f0be108	0.54640245
6	0x3f29b7ef	0.66296285
7	0x3fdd9037	1.7309636
8	0x3f3d2c33	0.7389557
9	0x3eeab534	0.45841372
10	0x3f3a5a93	0.72794455
11	0x3ebdf51d	0.3710107
12	0x3f080dcb	0.53146046
13	0x3eb120b5	0.34595266
14	0x3f603aa8	0.875895
15	0x3f302180	0.68801117
16	0x3f88e27e	1.069412
17	0x3ef3af8d	0.47594872
18	0x3f5a9266	0.85379636
19	0x3f2d232a	0.6763178
20	0x3f7fce91	0.9992457
21	0x3f27f2fd	0.65605146
22	0x3f54f76b	0.8319003
23	0x3ed8f304	0.42372906
24	0x3f243cda	0.6415535
25	0x3f06d538	0.52669096
26	0x3f517db0	0.8183241
27	0x3f0e7ebe	0.55662143
28	0x3f1748e1	0.5909558
29	0x3eebd33d	0.460596
30	0x3fd0135f	1.6255912
31	0x3f1584c5	0.58405715
32	0x3ef48b78	0.47762656
33	0x3ec5db43	0.38643846
34	0x3efb429d	0.4907426
35	0x3f0a67f3	0.54064864
36	0x3f1db824	0.616091
37	0x3f1f1cf5	0.6215356
38	0x3f1a9482	0.60382855
39	0x3f08e6cb	0.5347716
40	0x3f2f4d66	0.68477476
41	0x3f87b09a	1.060077
42	0x3f3ec53c	0.74519706
43	0x3f2e91a4	0.6819098
44	0x3f21e007	0.63232464
45	0x3f6d0bd3	0.9259617
46	0x3fa8639c	1.3155398
47	0x3f21eb16	0.6324934
48	0x3f590a7d	0.8478163
49	0x3f5b1da1	0.85592085
50	0x3f384c47	0.7199139
51	0x3f7a4bba	0.977718
52	0x3f963866	1.1735961
53	0x3f1f2b47	0.6217541
54	0x3f378058	0.7168021
55	0x3f3b1611	0.73080546
56	0x3f21afa2	0.6315862
57	0x3f7a07d4	0.97668195
58	0x3ef562e7	0.4792702
59	0x3fa2be16	1.271426
60	0x3f1caa0e	0.6119698
61	0x3f2dcc17	0.6788954
62	0x3f3caeba	0.7370411
63	0x3f68cb6c	0.909354
64	0x3f0f7307	0.5603489
65	0x3f1067c4	0.56408334
66	0x3f1510a0	0.5822849
67	0x3f01b501	0.50666815
68	0x3f4e3de2	0.80563176
69	0x3f4d6e51	0.80246454
70	0x3fd649fc	1.6741328
71	0x3f3d50e9	0.73951584
72	0x3f27661f	0.653902
73	0x3ec0da06	0.3766634
74	0x3ee7cd63	0.45273885
75	0x3fd866b9	1.6906348
76	0x3f3a271c	0.72715926
77	0x3f2d2873	0.67639846
78	0x3eebeb52	0.46077973
79	0x3efa3719	0.4887016
80	0x3f00ada9	0.50264984
81	0x3ee7e859	0.45294455
82	0x3ebfa95a	0.37433892
83	0x3f608d81	0.8771592
84	0x3f2754d5	0.6536382
85	0x3f8dab46	1.1067894
86	0x3f9c2be9	1.22009
87	0x3f0d9037	0.5529818
88	0x3ebdb731	0.37053826
89	0x3f826b24	1.0188947
90	0x3f26972d	0.65074426
91	0x3f491635	0.7854951
92	0x3f8339ce	1.0252016
93	0x3f074794	0.52843595
94	0x3f3143b2	0.6924392
95	0x3f8a5ea3	1.0810131
96	0x3f7c1e6f	0.9848394
97	0x3f0a4a78	0.5401988
98	0x3f3700e6	0.71485746
99	0x3f21db48	0.6322522
100	0x3f3d6d25	0.73994666
101	0x3ed3655b	0.41288266
102	0x3f523bde	0.821226
103	0x3f0ea5cd	0.5572174
104	0x3f5098a5	0.8148292
105	0x3f573dfa	0.84078944
106	0x3f098148	0.5371289
107	0x3f64a8a6	0.8931984
108	0x3f1ba31b	0.60795754
109	0x3f70e2ac	0.94095874
110	0x3f33d7e7	0.70251316
111	0x3ed6e208	0.41969323
112	0x3f7db79f	0.9910831
113	0x3f83b93f	1.0290908
114	0x3f261036	0.64868486
115	0x3f4c562d	0.79818994
116	0x3f37a7a4	0.71740174
117	0x3f6eb8d1	0.9325076
118	0x3f44f447	0.7693524
119	0x3f2dc558	0.6787925
120	0x3eda55c9	0.42643574
121	0x3f529054	0.8225148
122	0x3ed21340	0.41030312
123	0x3eea299d	0.45734873
124	0x3f1ab953	0.6043903
125	0x3f8985f6	1.0744007
126	0x3fd47de5	1.660092
127	0x3eba04c5	0.36331764

network.4.weight f4 [64, 128]
0	0xbe49fff1	-0.1972654
1	0xbe89be98	-0.26903224
2	0x3e223085	0.15838821
3	0x3dccd4ac	0.100015014
4	0xbbbeaec8	-0.0058191754
5	0x3e44b2cc	0.1920883
6	0xbe18a790	-0.1490767
7	0x3ef81bb0	0.48458624
8	0xbd992780	-0.07478237
9	0xbe6a1ee1	-0.22863342
10	0x3d174790	0.03693348
11	0x3d828a4b	0.063740335
12	0x3da17675	0.07883922
13	0x3e6cd6aa	0.23128763
14	0x3e15e20f	0.14637016
15	0x3dd7484b	0.10511836
16	0x3dbeb182	0.09311201
17	0x3e2e0420	0.16993761
18	0x3e203fd8	0.15649354
19	0x3e32808e	0.17431852
20	0x3cbfb690	0.023402482
21	0xbe58175e	-0.21102664
22	0x3dca0e38	0.09865993
23	0x3c43f17e	0.011959432
24	0xbdd22b6c	-0.10262188
25	0xbcc8f1f9	-0.024529444
26	0x3dea0b94	0.114279896
27	0xbdbdafa2	-0.09262015
28	0x3df82b4b	0.121176325
29	0xbd6aef92	-0.05735738
30	0x3d5863c8	0.052829534
31	0x3cfe63ac	0.031053387
32	0x3dedf5a2	0.11619116
33	0x3e291d3b	0.16515057
34	0xbc9586fe	-0.018252846
35	0xbd57ff50	-0.05273372
36	0x3dee2e27	0.116298966
37	0xbeaa79c8	-0.33296037
38	0xbebdbd7d	-0.3705863
39	0x3da93fb5	0.08264104
40	0xbe3b6df0	-0.18303657
41	0xbe2acec0	-0.16680431
42	0x3c59f79b	0.013303663
43	0x3e9525f9	0.29130533
44	0xbe1b4dca	-0.15166393
45	0xbe45dc54	-0.1932233
46	0x3cd63f20	0.026153147
47	0x3dc8a175	0.097964205
48	0xbe3c76a9	-0.1840464
49	0x3c9ca699	0.019122409
50	0x3dd56d3d	0.10421226
51	0x3cf339c1	0.029690625
52	0xbdf9d821	-0.121994264
53	0xbdef11fe	-0.116733536
54	0xbd428122	-0.047486432
55	0x3e298767	0.16555558
56	0x3e00dd4f	0.12584423
57	0x3cd27f03	0.02569533
58	0x3d89b2b7	0.0672354
59	0x3de93e49	0.11388833
60	0x3cfe457f	0.031038998
61	0x3e09a606	0.13442239
62	0x3caf04df	0.021364627
63	0x3e72aa94	0.23697883
64	0xbddf1d3c	-0.10894248
65	0xbe7a409a	-0.24438706
66	0xbe97cd99	-0.29649046
67	0x3e3ba042	0.18322852
68	0xbe0596f6	-0.13045868
69	0xbe3dce7f	-0.18535803
70	0x3eca5ddf	0.39524743
71	0x3e031870	0.12802291
72	0xbc061520	-0.0081837475
73	0x3e6e57f5	0.2327574
74	0x3d5291e6	0.05140867
75	0x3da49679	0.08036513
76	0x3b88d0cc	0.004175281
77	0x3cc11075	0.023567418
78	0x3be88ca3	0.0070968433
79	0xbd2c6915	-0.0420924
80	0x3e56636c	0.20936364
81	0xbdaea64c	-0.08527812
82	0x3b706682	0.0036682193
83	0xbdf4e84f	-0.11958372
84	0x3d0fd8b4	0.035118774
85	0xbd54dcf7	-0.05196854
86	0x3e41ae2d	0.18914099
87	0x3dabc52c	0.08387217
88	0x3d994a04	0.074848205
89	0x3dcb4bb0	0.099265456
90	0xbcac360f	-0.02102187
91	0x3c0b9904	0.0085203685
92	0xbca1ee47	-0.01976694
93	0x3e0d49c5	0.13797672
94	0x3d12bbc0	0.035823584
95	0xbd9ad25e	-0.075596556
96	0x3cc334a5	0.023828814
97	0xbdf29539	-0.11844868
98	0x3d6d8f27	0.05799785
99	0x3dcf235b	0.101141654
100	0x3d8f2435	0.06989328
101	0xbcdd8b5c	-0.02704399
102	0xbd13eea9	-0.036116276
103	0x3e5b0b69	0.21391071
104	0x3e920aa1	0.28523734
105	0xbc4b636b	-0.01241384
106	0xbe71f240	-0.23627567
107	0x3e21a29f	0.15784691
108	0xbd044e11	-0.032301012
109	0x3d78da02	0.060754783
110	0x3d324dc6	0.0435312
111	0x3d3f3c2d	0.046688247
112	0x3d05d688	0.032675296
113	0x3c980cfd	0.01856088
114	0xbc8c22fc	-0.017106526
115	0x3c8d2ce8	0.017233327
116	0x3deef7cd	0.11668358
117	0xbe08a60e	-0.13344595
118	0xbf03aae5	-0.5143264
119	0x3d22825f	0.039675113
120	0xbd19540e	-0.037433676
121	0xbcd11291	-0.025521548
122	0x3dbebe25	0.09313611
123	0x3dba07f0	0.09083545
124	0x3de87c29	0.11351807
125	0xbe0b04cd	-0.1357605
126	0xbccf6431	-0.02531633
127	0x3d382ed3	0.04496653
128	0xbe8e6a85	-0.27815643
129	0x3d89605b	0.067078315
130	0xbe00c9b0	-0.12576938
131	0xbe9ad046	-0.30237025
132	0x3e234411	0.15943934
133	0x3db87232	0.09006156
134	0xbe12d1f9	-0.1433791
135	0xbe614938	-0.22000587
136	0x3c936885	0.017994175
137	0x3dedd5bc	0.11613032
138	0x3e9a694b	0.30158457
139	0xbd8c314e	-0.068453416
140	0x3cdfa876	0.027302008
141	0x3db13faa	0.08654721
142	0xbe351916	-0.17685351
143	0xbe5e7436	-0.21724018
144	0x3e0efac1	0.13962843
145	0x3cf32608	0.02968122
146	0xbf128924	-0.5724051
147	0x3bb87504	0.0056291837
148	0xbe4c3bfb	-0.19944756
149	0xbe385867	-0.18002473
150	0xbe0388f6	-0.12845215
151	0x3dce793d	0.10081718
152	0x3e30df53	0.17272691
153	0x3d60c105	0.054871578
154	0xbdf31025	-0.11868314
155	0x3e2ff554	0.17183429
156	0xbcf7fdca	-0.030272383
157	0x3d8db445	0.06919149
158	0xbb735eb2	-0.00371353
159	0xbeccd315	-0.40004793
160	0x3dcf0372	0.10108079
161	0x3de5b732	0.11216582
162	0x3e1480af	0.14502214
163	0x3dc65372	0.09683885
164	0x3cd3218d	0.025772834
165	0x3d9e9cfd	0.07744787
166	0x3d1d97b1	0.038474742
167	0xbd3ab6be	-0.045584433
168	0xbd531d07	-0.051541355
169	0xbe23a9f6	-0.15982804
170	0xbe7ee0ac	-0.24890393
171	0xbe04de7d	-0.12975498
172	0xbb9a8014	-0.004714975
173	0xbe2bb292	-0.16767338
174	0x3acf524a	0.0015817371
175	0xbea651d1	-0.32484296
176	0xbdeaa0f7	-0.11456483
177	0xbe7270c5	-0.2367583
178	0x3e417700	0.18893051
179	0x3dba9412	0.091102734
180	0x3cea6908	0.028614536
181	0xbdc1aebd	-0.09457157
182	0x3c728243	0.014801565
183	0x3de29a5c	0.11064598
184	0xbc7541ab	-0.01496927
185	0x3d482d7c	0.048871502
186	0xbe42d64b	-0.19027059
187	0x3c12eb33	0.008967209
188	0x3e3af120	0.18256044
189	0x3d675a3a	0.05648253
190	0xbe8a702b	-0.27038702
191	0x3cdbefea	0.026847798
192	0xbe97f023	-0.29675397
193	0x3d9cadd5	0.07650343
194	0xbe69317c	-0.22772783
195	0x3de9ccd2	0.114160195
196	0xbd4538fe	-0.048150055
197	0xbdd7229a	-0.105046466
198	0x3da0bfa9	0.07849056
199	0x3d9c139a	0.07620926
200	0x3c62c49f	0.013840823
201	0x3e10a90e	0.14126989
202	0x3df13c07	0.117790274
203	0xbe86a669	-0.26298836
204	0x3c428979	0.011873596
205	0x3dd0fa14	0.102039486
206	0x3d85cbd5	0.065330185
207	0x3e6cbd05	0.2311898
208	0xbe305587	-0.17220126
209	0x3db56c28	0.0885852
210	0x3e2c3bd8	0.16819704
211	0x3e128e4e	0.14312097
212	0xbd531f00	-0.051543236
213	0x3db3a778	0.087721765
214	0x3cacf388	0.021112218
215	0xbdf95fe2	-0.12176491
216	0x3e202fdf	0.15643261
217	0xbd5cf96b	-0.0539488
218	0xbe830681	-0.255909
219	0xbd990e33	-0.074734114
220	0x3d425ea9	0.047453556
221	0xba8c157a	-0.0010687553
222	0x3c1053be	0.008809028
223	0xbde3aaed	-0.11116586
224	0x3d9203f8	0.07129663
225	0xbce3eb70	-0.027822226
226	0xbe4ab37e	-0.19795033
227	0xbd6deda5	-0.058087964
228	0x3d84b478	0.06479734
229	0x3dbb875c	0.09156677
230	0x3d99e3c0	0.07514143
231	0xbd1e6144	-0.03866698
232	0x3c1fa619	0.009744191
233	0xbdd1418f	-0.102175824
234	0xbd208349	-0.039187703
235	0x3da23022	0.07919337
236	0xbdfca939	-0.12336964
237	0x3ddc5839	0.10759015
238	0xbe08d9e3	-0.13364367
239	0x3c1f48bb	0.00972193
240	0x3e3fa015	0.1871341
241	0x3d1f5ae8	0.038905054
242	0xbd9c069f	-0.076184504
243	0x3dd1d374	0.102454096
244	0xbdaa9396	-0.08328931
245	0xbd50c038	-0.050964564
246	0x3cc5b064	0.024131961
247	0x3e22089e	0.158236
248	0x3e32e1e5	0.17468984
249	0x3c8228f8	0.015888676
250	0x3c7d8b05	0.015475039
251	0xbc1006c3	-0.008790675
252	0xbe53ba9b	-0.20676653
253	0x3c39e537	0.011346153
254	0x3d990b09	0.07472808
255	0x3e172ad2	0.14762428

network.4.bias f4 [64]
0	0xbc71aa86	-0.014750129
1	0x3d935bfc	0.07195279
2	0xbd3dacae	-0.04630726
3	0xbdb2d92f	-0.08732831
4	0x3d980b70	0.074240565
5	0x3d8036a4	0.06260422
6	0xbdd14bd4	-0.10219541
7	0x3df5ca17	0.12001436
8	0x3d8e7318	0.06955546
9	0x3d83e969	0.06441004
10	0x3d8ec22e	0.069706306
11	0x3d114fdc	0.03547655
12	0x3d846832	0.06465186
13	0xbd6c31a0	-0.057664514
14	0xbd17fadb	-0.03710447
15	0x3d1bd907	0.03804877
16	0x3df816cb	0.121137224
17	0xbd2d421b	-0.04229937
18	0xbc207d64	-0.00979552
19	0x3c289bb9	0.010291033
20	0xbd963884	-0.07334998
21	0x3d2626be	0.04056429
22	0xbd0fd68e	-0.035116725
23	0x3cec3f14	0.028838672
24	0x3dec0381	0.11524106
25	0xbdb7459c	-0.08948824
26	0x3dc0a778	0.09406942
27	0xbd9d9a58	-0.07695454
28	0xbd4507c7	-0.04810312
29	0x3d79afa8	0.060958534
30	0x3dd58b05	0.104269065
31	0xbd3b3193	-0.045701575
32	0x3c23de30	0.010001704
33	0xbae9da3b	-0.0017841527
34	0x3d8ddb80	0.06926632
35	0xbd087e34	-0.03332348
36	0x3ca342c7	0.019929303
37	0x3e0552ac	0.13019818
38	0x3d670e68	0.056410223
39	0x3d8f03a3	0.069831155
40	0xbcddf6b7	-0.027095182
41	0xbbdb2d7e	-0.0066887727
42	0xbc856f7d	-0.016288513
43	0x3d317a5c	0.04332958
44	0xbd912141	-0.07086421
45	0xbd5a81ba	-0.053346373
46	0x3d83660c	0.06415948
47	0xbc25fa29	-0.010130444
48	0xbd165d36	-0.036709987
49	0x3dab8697	0.0837528
50	0x3d23d334	0.03999634
51	0x3dae182c	0.08500704
52	0x3d965a4b	0.07341441
53	0x3bb122b4	0.0054057483
54	0xbcbb67d8	-0.022876665
55	0x3c2b361a	0.010449911
56	0xbd6cdb50	-0.05782634
57	0xbc35e89d	-0.011102823
58	0xbd6f0b73	-0.05836053
59	0x3cb0f619	0.021601724
60	0x3d8afa8f	0.067860715
61	0x3d98322a	0.07431443
62	0x3d8fbff9	0.07019038
63	0x3bf23217	0.007391225

network.5.weight f4 [64]
0	0x3f99e220	1.2022133
1	0x3fbd221e	1.4776037
2	0x3fac64c5	1.3468252
3	0x3f9d60ad	1.2295128
4	0x3fa19898	1.2624693
5	0x3f972a2d	1.1809746
6	0x3f9f3d30	1.2440548
7	0x3f8a1c49	1.0789882
8	0x3f94652f	1.1593379
9	0x3f9beb5f	1.2181205
10	0x3fb96102	1.448273
11	0x3fb6c8cc	1.4280028
12	0x3f81bcc7	1.0135735
13	0x3f9b6ed0	1.2143192
14	0x3f9327b8	1.1496496
15	0x3f93d3ff	1.1549071
16	0x3f9712b7	1.1802586
17	0x3f9ecab1	1.2405607
18	0x3f9935eb	1.196958
19	0x3f8e5e78	1.112258
20	0x3f9d3357	1.2281293
21	0x3fab1192	1.3364737
22	0x3f8b38d4	1.0876718
23	0x3fa69fe7	1.3017548
24	0x3f9a04f8	1.2032766
25	0x3f9beaad	1.2180992
26	0x3fa8e302	1.3194277
27	0x3f924682	1.1427767
28	0x3f9fa851	1.2473241
29	0x3f99adc7	1.2006158
30	0x3f8e2b3b	1.1106943
31	0x3fb313ad	1.399038
32	0x3f955b6c	1.1668525
33	0x3fa221f5	1.2666613
34	0x3faa0b36	1.3284671
35	0x3f9770de	1.1831319
36	0x3f8104c1	1.0079576
37	0x3f963718	1.1735563
38	0x3fa46b6d	1.2845284
39	0x3fa8d9fb	1.3191522
40	0x3fa0d547	1.2565087
41	0x3fa242b8	1.2676611
42	0x3fa285c0	1.2697067
43	0x3f90c1b2	1.1309111
44	0x3fa02b3c	1.2513194
45	0x3faa8c7a	1.332412
46	0x3f981a8a	1.1883099
47	0x3f9241c3	1.1426319
48	0x3f90e556	1.1319988
49	0x3f84a0e9	1.0361606
50	0x3fb0bf0f	1.3808306
51	0x3f9b5907	1.2136544
52	0x3f8ce53a	1.1007454
53	0x3fa39b96	1.2781856
54	0x3f98ce15	1.1937891
55	0x3f8def20	1.10886
56	0x3fafb052	1.3725684
57	0x3f963001	1.17334
58	0x3f991148	1.1958399
59	0x3f96e96f	1.1789988
60	0x3f9f6c5f	1.2454947
61	0x3faf6544	1.3702779
62	0x3f9175ed	1.1364113
63	0x3f940ecf	1.1567019

network.5.bias f4 [64]
0	0xbe7397d1	-0.23788382
1	0xbe2dadf0	-0.16960883
2	0xbea0520a	-0.3131259
3	0xbd66973e	-0.05629658
4	0xbe850126	-0.2597744
5	0xbec07ce4	-0.37595284
6	0xbea70e1c	-0.32627952
7	0xbf0cfd76	-0.5507425
8	0xbebc713f	-0.3680515
9	0xbe72845d	-0.23683305
10	0xbe61f925	-0.22067697
11	0xbe0a70c9	-0.13519587
12	0xbf2fa2a5	-0.6860755
13	0xbe843a6b	-0.2582582
14	0xbed1afe7	-0.40954515
15	0xbeb0367c	-0.34416568
16	0xbecb228c	-0.39674795
17	0xbed6aee4	-0.41930306
18	0xbe8f417f	-0.27979657
19	0xbee69815	-0.45037904
20	0xbdfeb224	-0.124363214
21	0xbed5c11d	-0.41748896
22	0xbe443655	-0.19161351
23	0xbe6d8764	-0.23196179
24	0xbee399d2	-0.44453293
25	0xbe8efac3	-0.2792569
26	0xbe83de99	-0.25755766
27	0xbe47bd56	-0.1950582
28	0xbe752778	-0.23940837
29	0xbee98e19	-0.45616224
30	0xbe2c7b05	-0.16843803
31	0xbebafa1f	-0.36518952
32	0xbeae1eef	-0.34007975
33	0xbe8c10e9	-0.2735665
34	0xbed30a0b	-0.412186
35	0xbe4b74ab	-0.19868724
36	0xbeb1cbe5	-0.34725872
37	0xbef4c46d	-0.4780611
38	0xbee892d2	-0.45424515
39	0xbe916953	-0.28400669
40	0xbec4a579	-0.38407496
41	0xbe714a94	-0.23563606
42	0xbec14d51	-0.377543
43	0xbe5cde9f	-0.21569298
44	0xbe75f45d	-0.24018998
45	0xbea5e858	-0.32403827
46	0xbe97f68a	-0.29680282
47	0xbeb4f879	-0.3534582
48	0xbe29811b	-0.16553156
49	0xbf332a57	-0.6998648
50	0xbe9911f0	-0.29896498
51	0xbed42848	-0.41436982
52	0xbf0999ba	-0.53750193
53	0xbe8cb7ec	-0.2748407
54	0xbec00d45	-0.37510124
55	0xbe92169d	-0.28532878
56	0xbeaea7b7	-0.3411233
57	0xbed32d12	-0.41245323
58	0xbe0c69f6	-0.13712296
59	0xbe572b92	-0.21012715
60	0xbe4a1f1c	-0.1973843
61	0xbe260e52	-0.162164
62	0xbee3e27a	-0.44508725
63	0xbecfc2c1	-0.40578273

network.5.running_mean f4 [64]
0	0x3de6fb88	0.112784445
1	0xbe306aa4	-0.1722818
2	0xbecc3152	-0.39881378
3	0x3c968a05	0.01837636
4	0xbf2fc4ba	-0.68659556
5	0xbd472873	-0.04862256
6	0x3d493f9d	0.049132932
7	0xbf21cf23	-0.6320669
8	0xbeffa912	-0.49933678
9	0xbe524800	-0.20535278
10	0xbee1b0b7	-0.44080135
11	0xbe8e5cb4	-0.27805102
12	0xbe85aec7	-0.26109907
13	0xbe75c9ab	-0.24002711
14	0xbe056bb7	-0.13029371
15	0xbe1b75fd	-0.15181728
16	0xbdeb16cd	-0.11478958
17	0xbf07a0ea	-0.5297991
18	0xbc384059	-0.01124581
19	0xbdb03044	-0.08602956
20	0xbe7a6de4	-0.24455982
21	0xbe8a7469	-0.2704194
22	0x3e155042	0.14581397
23	0x3e8184f4	0.25296748
24	0xbf099d6d	-0.5375584
25	0xbe8eebaf	-0.27914187
26	0xbeb0f3bc	-0.34560955
27	0xbf1d9f44	-0.61571145
28	0xbe844627	-0.25834772
29	0x3e78cadd	0.24296136
30	0x3b36f9fa	0.0027919994
31	0xbee0e62f	-0.43925616
32	0xbead8680	-0.33891678
33	0x3dc6803b	0.09692427
34	0xbec5ac18	-0.3860786
35	0xbecd1450	-0.4005456
36	0xbdf282f8	-0.118413866
37	0xbe55fe51	-0.20897795
38	0x3e0a629e	0.13514182
39	0xbe8b127e	-0.27162546
40	0xbee76598	-0.45194697
41	0xbca71b52	-0.02039877
42	0x3b65e161	0.0035076963
43	0x3e18b2af	0.14911912
44	0xbe9fd654	-0.31218207
45	0xbede8fb8	-0.43469024
46	0x3e5dfe87	0.21679126
47	0xbeff2cea	-0.49838954
48	0xbea54764	-0.3228103
49	0xbdeee1e6	-0.116641805
50	0xbe38aaea	-0.18033949
51	0x3e18afcf	0.14910816
52	0xbf6edae0	-0.93302727
53	0x3e1a6442	0.15077308
54	0xbe98336a	-0.29726726
55	0xbe780c83	-0.24223523
56	0x3e25df20	0.16198397
57	0x3e1c632d	0.15272208
58	0x3e234e90	0.15947938
59	0x3e413a5a	0.18869916
60	0xbef971a6	-0.4871952
61	0xbe1891ab	-0.14899318
62	0xbcbbe0e6	-0.022934388
63	0x3eee72a9	0.46571854

network.5.running_var f4 [64]
0	0x3f067d68	0.52535105
1	0x3f5ce222	0.8628255
2	0x3f331560	0.6995449
3	0x3ee537c8	0.4476912
4	0x3f3aea0c	0.7301338
5	0x3f03e859	0.5152641
6	0x3eb4a887	0.35284826
7	0x3f355e91	0.7084742
8	0x3f3f1fd7	0.7465796
9	0x3ee0ea3f	0.43928716
10	0x3f604229	0.8760095
11	0x3f734aa1	0.9503575
12	0x3e97f078	0.2967565
13	0x3f013e22	0.5048543
14	0x3eb8968e	0.36052364
15	0x3ed08672	0.40727574
16	0x3f0d1258	0.55106115
17	0x3f1b31f1	0.6062308
18	0x3f435c3d	0.7631262
19	0x3f1117c2	0.56676877
20	0x3ee2a5bd	0.44267073
21	0x3f1d4d35	0.61445934
22	0x3ed9ab55	0.42513528
23	0x3f163abb	0.58683366
24	0x3f0f9df9	0.5610042
25	0x3ecbfead	0.3984274
26	0x3f589593	0.8460323
27	0x3ea2c72b	0.31792578
28	0x3edee157	0.43531296
29	0x3eaca62e	0.33720535
30	0x3eb31e7d	0.34984198
31	0x3f4b1e8a	0.79343474
32	0x3ebc9c1e	0.36837858
33	0x3eac6db6	0.33677453
34	0x3f63792c	0.8885677
35	0x3ee064b9	0.43826845
36	0x3ea71d79	0.32639673
37	0x3ece05cd	0.402388
38	0x3f0f49fb	0.5597226
39	0x3f204c93	0.62616843
40	0x3f03cea7	0.514872
41	0x3f0786e8	0.52940226
42	0x3f1aa4d3	0.6040775
43	0x3eb0b455	0.34512582
44	0x3efc5c61	0.4928923
45	0x3f21a881	0.6314774
46	0x3ec03bfe	0.3754577
47	0x3f4e939d	0.8069399
48	0x3ebef0ba	0.37293035
49	0x3e9a0fc5	0.30090156
50	0x3f453601	0.7703553
51	0x3eb7f5c1	0.35929683
52	0x3f21e459	0.63239056
53	0x3eefdb3b	0.46846947
54	0x3ec2d672	0.38054234
55	0x3ea34108	0.31885552
56	0x3f213000	0.6296387
57	0x3ea5b25c	0.3236264
58	0x3ee817a9	0.4533055
59	0x3ed24fcd	0.41076508
60	0x3ef99419	0.48745802
61	0x3f61a92c	0.8814876
62	0x3eb29b21	0.3488398
63	0x3eaf8106	0.34278125

network.8.weight f4 [3, 64]
0	0x3e8d2172	0.2756458
1	0x3e2e0e6b	0.16997688
2	0x3e651e59	0.22374858
3	0xbea94e72	-0.33067662
4	0x3e70b604	0.23506933
5	0x3e08944d	0.13337822
6	0xbebfd84f	-0.37469718
7	0x3eda6059	0.42651632
8	0x3e9a8b76	0.30184525
9	0x3e603f90	0.21899247
10	0x3d610129	0.054932747
11	0x3e428569	0.18996204
12	0xbd34082f	-0.043953117
13	0x3e4e7775	0.20162757
14	0xbee5e588	-0.4490168
15	0x3e5c4a86	0.21512803
16	0x3e614782	0.21999934
17	0x3e2e874c	0.17043799
18	0x3e5a2d81	0.21306421
19	0x3eb6ef1b	0.35729298
20	0xbec41bdf	-0.38302514
21	0x3e13ab50	0.1442082
22	0xbcd8beb6	-0.026458126
23	0x3e5f5d9f	0.21813057
24	0x3e249d7b	0.16075699
25	0xbed9b630	-0.4252181
26	0x3d90ca03	0.07069781
27	0xbdc3903c	-0.09548995
28	0x3e2a1799	0.16610564
29	0xbf019c55	-0.5062917
30	0xbeb0dd21	-0.34543708
31	0x3e22b17f	0.15888022
32	0xbee7056e	-0.4512133
33	0xbee317ba	-0.4435404
34	0x3e4a6fec	0.19769257
35	0xbecfc4ed	-0.4057993
36	0xbdf2638d	-0.11835394
37	0x3e8b7ddf	0.2724447
38	0x3e5ab0d2	0.21356514
39	0x3e74c64b	0.23903768
40	0xbf0a684e	-0.54065406
41	0x3e703fc8	0.2346183
42	0x3e684842	0.22683814
43	0xbed3c5ce	-0.4136185
44	0x3e2c3b5b	0.16819517
45	0x3d9f84cc	0.07789001
46	0xbec345c2	-0.38139158
47	0x3e9f8fb3	0.3116432
48	0xbeb605fd	-0.35551444
49	0xbebe470c	-0.3716358
50	0x3e157a36	0.14597401
51	0x3e5755cc	0.21028823
52	0x3ee29e35	0.44261327
53	0x3e0fb139	0.14032449
54	0x3dab0a7c	0.08351609
55	0xbe18b674	-0.1491335
56	0x3d1f9685	0.038961906
57	0x3d67c4a9	0.056584034
58	0x3e2be11a	0.16785088
59	0xbd4eb065	-0.05046119
60	0xbed1d0bf	-0.40979573
61	0x3e0ee193	0.13953237
62	0xbf026888	-0.5094075
63	0x3e838355	0.25686136
64	0xbec188c6	-0.37799662
65	0x3e29b554	0.16573077
66	0x3e5e8ef4	0.2173422
67	0x3dc4908a	0.09597881
68	0x3dd5de3f	0.10442781
69	0x3d15208d	0.036407996
70	0x3e4818d0	0.19540715
71	0xbe81f6b4	-0.25383532
72	0xbec09a6f	-0.37617823
73	0xbea16525	-0.3152248
74	0x3d9d02f8	0.07666582
75	0x3e2e1ec5	0.17003925
76	0x3ea9f81a	0.331971
77	0xbeee78db	-0.4657658
78	0x3e138335	0.1440552
79	0xbebd7a9f	-0.37007615
80	0xbedfcc0b	-0.4371036
81	0xbf0123bd	-0.5044516
82	0x3d441b50	0.04787761
83	0xbec46a95	-0.38362566
84	0x3e04d678	0.12972438
85	0x3e6e88e9	0.23294415
86	0xbe82df84	-0.25561154
87	0xbeee21d7	-0.46510193
88	0xbf07c9a1	-0.53042036
89	0x3e32c8f0	0.17459464
90	0x3d731093	0.05934198
91	0xbe6c12f0	-0.23054099
92	0x3dbcfa0f	0.092273824
93	0x3e3e60dd	0.18591638
94	0x3cf7a0ac	0.030227982
95	0x3e1cf841	0.15329076
96	0x395a1231	0.00020796877
97	0x3e2cdcf0	0.16881156
98	0xbccfcab0	-0.025365204
99	0x3e57816c	0.21045464
100	0xbe5dcb03	-0.21659474
101	0xbed4ca4b	-0.41560587
102	0x3e6e3bb0	0.23264956
103	0x3e20d0d0	0.15704656
104	0x3dfe2af0	0.124105334
105	0xbed55ade	-0.4167089
106	0xbeefbb1c	-0.4682244
107	0x3ca31693	0.019908225
108	0xbed01362	-0.40639788
109	0x3e1a99fd	0.15097804
110	0x3df8aa02	0.121418014
111	0xbddf00ea	-0.10888846
112	0x3db14e52	0.086575165
113	0x3eb78c18	0.3584907
114	0x3e1af4dc	0.15132469
115	0xbed73436	-0.4203202
116	0xbe801b84	-0.25020993
117	0xbee34d16	-0.4439475
118	0xbecaf9b4	-0.39643633
119	0xbe8f9284	-0.2804147
120	0x3d120c09	0.03565601
121	0xbeeccd9a	-0.46250612
122	0xbe7fb406	-0.24971017
123	0xbed8b19b	-0.42323002
124	0xbbe56065	-0.0070000165
125	0x3ddab70b	0.10679444
126	0x3e8706f6	0.26372498
127	0xbed71bff	-0.42013547
128	0x3dabe043	0.08392384
129	0xbf0cf12c	-0.550555
130	0xbefd1a0c	-0.49433935
131	0x3e0947e5	0.13406332
132	0xbf0977b3	-0.5369827
133	0xbf0235e5	-0.50863487
134	0x3e505ce8	0.20347941
135	0xbdb60d40	-0.08889246
136	0x3d441dfc	0.047880158
137	0x3e585234	0.21125108
138	0xbf30ce09	-0.69064385
139	0xbf0f9541	-0.5608712
140	0xbef130df	-0.47107598
141	0x3de494c3	0.111611865
142	0x3d47a42a	0.048740543
143	0x3e0142ac	0.1262309
144	0x3e5e294f	0.21695445
145	0x3e9d3d60	0.30710888
146	0xbf074a23	-0.528475
147	0x3d4818d4	0.048851803
148	0x3dc828f1	0.09773434
149	0xbf0f229e	-0.55912197
150	0x3e670a88	0.22562611
151	0xbbce77c7	-0.0063008997
152	0x3dc893f8	0.09793848
153	0x3e1abb5f	0.15110539
154	0xbf185107	-0.5949864
155	0x3eaa9c02	0.3332215
156	0xbefa5478	-0.4889257
157	0x3d68bde6	0.056821726
158	0x3e220141	0.15820791
159	0xbf32e4ff	-0.6988067
160	0x3e083bc8	0.13304055
161	0x3dbca427	0.09210997
162	0xbf372e42	-0.7155496
163	0x3e0354ca	0.12825313
164	0x3e804fff	0.25061032
165	0x3e01e767	0.12685929
166	0xbf11db5e	-0.5697535
167	0xbf08b3d2	-0.53399384
168	0x3da5e8bc	0.08101031
169	0x3e0723a4	0.1319719
170	0x3e7e8856	0.24856696
171	0x3e20e5d4	0.15712672
172	0x3df759d5	0.12077681
173	0xbf18729b	-0.59549874
174	0x3e26345d	0.16230913
175	0xbec94dbb	-0.39317116
176	0x3d50d46f	0.050983842
177	0xbe496be7	-0.19670068
178	0xbf21e136	-0.6323427
179	0x3e7dd697	0.24788891
180	0xbe8246ba	-0.25444585
181	0x3e478af3	0.19486599
182	0x3e8511c4	0.25990117
183	0x3e5ac9dc	0.21366066
184	0xbf275688	-0.6536641
185	0x3e53f47d	0.20698734
186	0x3e62a54f	0.22133373
187	0x3db9d4ac	0.09073767
188	0x3dd05b58	0.101736724
189	0xbf26a63d	-0.6509741
190	0x3d46d199	0.04853973
191	0x3e151273	0.14557819

network.8.bias f4 [3]
0	0xbf1e7f3d	-0.619129
1	0xbd09a633	-0.033605766
2	0x3f108c89	0.5646444
