model_cache/BasicNN_bffbd99361f5.pt (torch, 61329 bytes, 14 tensors)

network.0.weight f4 [128, 33]
0.07724242 0.10762726 0.0065585407 0.23097767 -0.061154038 -0.25737673 0.17049816 0.05757166
-0.10460743 -0.0897643 0.06629743 0.007173713 -0.35732985 0.039097223 0.2017077 0.049023338
0.01364902 0.018592734 0.01962265 0.039677493 -0.03887614 0.3015623 0.3934841 0.21247678
0.045707542 -0.04838641 0.035057563 0.016854601 0.3447002 -0.09127436 0.06874388 0.115316875
0.17769319 0.047999464 -0.02859805 -0.04939126 0.009167369 0.051641382 -0.107731126 0.1126884
-0.042488683 -0.07273736 0.13571672 -0.13664366 0.097627655 0.046504747 -0.23713721 0.07840824
0.057209782 -0.0097621875 0.13184333 -0.033145376 0.24934773 -0.15258056 -0.28975892 0.11745411
0.04536636 0.22937867 0.041660707 -0.5314965 0.016945532 0.3386442 -0.09599898 -0.09400958
-0.0020506983 -0.16445957 0.033653457 0.19226085 0.0031939026 -0.03796001 -0.009026806 0.26416698
0.07282562 -0.1324148 -0.056506637 -0.13147843 -0.26108432 -0.108851604 -0.17831017 0.40305245
-0.026046908 -0.18083872 -0.1407911 -0.24725889 0.011541577 -0.16620855 0.0038429417 0.1300495
-0.12549825 0.036337677 -0.022743883 -0.12001843 0.07582586 -0.1014373 0.07186558 0.02113162
-0.06864149 0.008574207 -0.28711978 -0.32477593 0.1668028 -0.069590576 0.022972915 -0.12838966
0.15442312 0.06388294 0.0686836 0.18192361 -0.0946334 0.09321893 0.09039473 0.18814632
0.14038052 0.09245098 -0.30503765 0.11642933 -0.082225785 -0.17534593 0.2849578 0.17763026
-0.18697721 -0.021691654 -0.12099455 -0.002041857 0.10711392 -0.38928175 -0.25412124 0.20036913
0.04335217 0.1057337 0.05458565 -0.15211155 -0.2971758 -0.18636155 -0.54078054 0.14942445
0.15351503 -0.008438222 -0.05484596 0.08756924 -0.00045361576 0.033196718 -0.0010105509 0.06206482
-0.051425595 0.010823654 -0.1995153 0.31138116 0.21399088 0.11218796 -0.087851875 -0.11622254
0.1426596 0.18110126 0.122335695 0.0069165905 0.06690708 -0.12706982 0.009736691 0.1418316
-0.11588063 0.18526392 0.23283727 -0.04931142 -0.12919268 0.26743436 -0.34148026 0.06999503
0.12661503 -0.006475814 0.059996646 0.19388023 0.21877754 -0.0020043035 -0.05895381 0.1771468
0.07497434 -0.08014822 -0.171522 0.0010136437 -0.018296229 -0.055829294 -0.13441142 0.085117474
0.056968726 -0.14831308 -0.05551788 0.100240886 0.10087469 0.20122367 -0.08993512 0.12444987
-0.3518219 -0.07765858 -0.03353733 0.028548272 -0.011527164 -0.14330113 -0.29046276 -0.21674798
-0.10849376 -0.091568515 0.05342286 0.075252324 0.22494964 0.046352763 -0.12133589 0.0606346
0.056193028 -0.112386376 0.12721413 0.14779235 -0.011743035 -0.08253022 0.087183885 -0.22021474
0.19724995 0.0008182506 -0.035087947 -0.2006256 0.015372309 -0.082637765 0.280845 -0.12191004
0.083703674 -0.3022911 0.19964848 -0.24463052 0.09216265 -0.1216248 -0.10810964 0.07699702
-0.043894954 -0.022205573 0.07631417 0.061451744 0.105266795 -0.07963419 -0.022354867 0.0037643514
0.0621963 0.41057664 0.019585334 -0.06646233 -0.17884396 -0.17853633 0.024925886 0.22662996
-0.16533615 -0.061027825 0.3284773 -0.058419634 -0.081581354 -0.04332079 0.107694164 -0.33166802
00000000: 4631 9e3d ae6b dc3d 07e9 d63b 6985 6c3e
00000010: a87c 7abd e2c6 83be 1297 2e3e 43d0 6b3d
00000020: 6c3c d6bd 58d6 b7bd f2c6 873d 7711 eb3b
00000030: f0f3 b6be 6924 203d 778c 4e3e b2cc 483d
00000040: 24a0 5f3c ca4f 983c aebf a03c de84 223d
00000050: 963c 1fbd 6066 9a3e bf76 c93e 8393 593e
00000060: d537 3b3d d430 46bd 8598 0f3d a912 8a3c
00000070: 8b7c b03e 0dee babd 97c9 8c3d 412b ec3d
00000080: 34f5 353e 169b 443d 7546 eabc 7d4e 4abd
00000090: bc32 163c ea85 533d 23a2 dcbd 2dc9 e63d
000000a0: 9d08 2ebd 53f7 94bd 53f9 0a3e 51ec 0bbe
000000b0: 02f1 c73d c37b 3e3d 19d4 72be 8094 a03d
000000c0: ce54 6a3d 95f1 1fbc f001 073e 72c3 07bd
000000d0: 0355 7f3e 143e 1cbe 485b 94be c88b f03d
000000e0: 14d2 393d 3ee2 6a3e 6ba4 2a3d 2810 08bf
000000f0: 5bd1 8a3c c662 ad3e 1d9b c4bd 1888 c0bd
00000100: 0265 06bb 1768 28be 35d8 093d 07e0 443e
00000110: cb50 513b f57b 1bbd 2be5 13bc e540 873e
00000120: 9925 953d bf97 07be 8173 67bd 48a2 06be
00000130: d8ac 85be 97ed debd f196 36be e45c ce3e
00000140: 5360 d5bc c92d 39be 8b2b 10be 6f31 7dbe
00000150: e218 3d3c 9332 2abe ddd9 7b3b b22b 053e
00000160: 9d82 00be d1d6 143d 6151 babc 39cc f5bd
00000170: 974a 9b3d 5cbe cfbd 432e 933d 381c ad3c
00000180: e993 8cbd d57a 0c3c 5d01 93be 0849 a6be
00000190: 5ace 2a3e 8185 8ebd b231 bc3c 9478 03be
000001a0: 1821 1e3e 0fd5 823d fda9 8c3d 2f4a 3a3e
000001b0: 28cf c1bd 91e9 be3d df20 b93d 6ea9 403e
000001c0: e9bf 0f3e f056 bd3d e52d 9cbe 8072 ee3d
000001d0: fe65 a8bd e28d 33be fde5 913e b5e4 353e
000001e0: f476 3fbe b2b2 b1bc fecb f7bd add0 05bb
000001f0: 8b5e db3d f04f c7be 2e1c 82be 912d 4d3e
00000200: 0c92 313d e98a d83d 3495 5f3d 21c3 1bbe
00000210: 6d27 98be 90d5 3ebe 9870 0abf b902 193e
00000220: 0b33 1d3e 7840 0abc 28a6 60bd 8057 b33d
00000230: 47d3 edb9 48f9 073d 7674 84ba ae37 7e3d
00000240: a5a3 52bd b255 313c bd4d 4cbe 5a6d 9f3e
00000250: 6d20 5b3e cdc2 e53d afeb b3bd 1506 eebd
00000260: 5c15 123e 9c72 393e 238b fa3d 91a4 e23b
00000270: 9406 893d 971e 02be a486 1f3c 4e3c 113e
00000280: d352 edbd d3b5 3d3e e56c 6e3e c6fa 49bd
00000290: 164b 04be 28ed 883e 80d6 aebe 8e59 8f3d
000002a0: 5fa7 013e 1133 d4bb 0bbf 753d 8a88 463e
000002b0: 3807 603e a25a 03bb 8d79 71bd f965 353e
000002c0: 268c 993d c024 a4bd 77a3 2fbe 3ddc 843a
000002d0: f9e1 95bc 42ad 64bd 26a3 09be 1252 ae3d
000002e0: 0a58 693d 62df 17be b766 63bd 184b cd3d
000002f0: 6497 ce3d 940d 4e3e e72f b8bd 93df fe3d
00000300: 0022 b4be 760b 9fbd 705e 09bd 11de e93c
00000310: 6edc 3cbc 88bd 12be 89b7 94be 2ff3 5dbe
00000320: fa31 debd 4688 bbbd eed1 5a3d e41d 9a3d
00000330: 3359 663e 65dc 3d3d f37e f8bd fd5b 783d
00000340: a92a 663d d42a e6bd 6c44 023e e156 173e
00000350: dc65 40bc 9b05 a9bd 778d b23d f97f 61be
00000360: e4fb 493e de7f 563a 61b8 0fbd cc70 4dbe
00000370: 23dc 7b3c fd3d a9bd eaca 8f3e f9ab f9bd
00000380: d56c ab3d e6c5 9abe a770 4c3e 6c80 7abe
00000390: c5bf bc3d 6c16 f9bd 9668 ddbd 9db0 9d3d
000003a0: 32cb 33bd 76e8 b5bc 9b4a 9c3d d3b4 7b3d
000003b0: 1e96 d73d 4017 a3bd 8e21 b7bc 56b3 763b
000003c0: 8cc1 7e3d 1a37 d23e 6c71 a03c 671d 88bd
000003d0: df22 37be 3ad2 36be 5f31 cc3c af11 683e
000003e0: e14d 29be 50f8 79bd 2d2e a83e 6d49 6fbd
000003f0: 2014 a7bd 2471 31bd c28e dc3d 64d0 a9be

network.0.bias f4 [128]
0.033158682 0.028585508 -0.02214628 -0.19782825 -0.15619352 -0.04003156 -0.12073756 -0.21058767
0.058275312 -0.05302362 0.087137446 -0.14968158 -0.03749168 -0.09357857 0.023030333 0.06682339
0.058925774 0.05318191 0.10101676 -0.026587907 -0.028140722 0.15171736 -0.1142333 0.03003044
-0.18123372 0.04325457 -0.08733109 0.017637936 -0.1300671 -0.16764416 0.13780959 -0.026509242
0.019260006 0.11079155 -0.12273169 -0.08684231 -0.13767077 -0.051516224 -0.060174834 -0.10897736
0.029711263 -0.10689508 -0.04257995 -0.069276035 0.039759375 -0.12871517 -0.08679332 -0.04203357
-0.11024509 0.14468293 0.15021232 0.10268357 0.058829907 -0.06806495 0.052990574 0.080638506
-0.091981776 -0.19540937 0.007156508 0.05830027 0.18233173 0.08120474 -0.12762812 -0.1558213
0.11450799 0.16339526 0.006228724 0.1020816 -0.023890287 -0.07151177 0.038164362 0.18060584
0.055592023 -0.0030940566 -0.06403739 0.02142393 -0.19698025 -0.054947104 -0.19946496 -0.06253844
0.07677429 0.1305938 -0.08959072 -0.021277625 0.09517113 -0.14140272 0.15052226 0.17299165
-0.03412969 0.10219583 0.031069012 0.14301391 -0.090798154 0.07851029 -0.0717719 0.07744299
0.11699066 -0.19427672 -0.007573061 -0.18396308 -0.16508992 -0.07671805 0.059765644 -0.07156173
-0.09394369 0.09703508 0.048105612 0.095285796 0.15691796 -0.18349384 0.1751849 -0.17760399
-0.04007268 -0.1190031 0.046034086 0.011236389 0.01071255 -0.04838952 0.06920141 -0.12921187
-0.01734626 0.09478733 0.07643134 0.07084095 -0.15741995 -0.13133253 0.012615315 -0.17722869
00000000: 66d1 073d 282c ea3c 1e6c b5bc 7d93 4abe
00000010: 32f1 1fbe 22f8 23bd 4145 f7bd 4ba4 57be
00000020: 18b2 6e3d 4c2f 59bd 1e75 b23d 2146 19be
00000030: e090 19bd 1fa6 bfbd 1caa bc3c b4da 883d
00000040: 275c 713d 46d5 593d e0e1 ce3d e2ce d9bc
00000050: 5f87 e6bc cc5b 1b3e 26f3 e9bd 6602 f63c
00000060: 5595 39be b42b 313d a4da b2bd 6f7d 903c
00000070: 4f30 05be e9aa 2bbe f51d 0d3e e929 d9bc
00000080: 29c7 9d3c aee6 e23d c15a fbbd 62da b1bd
00000090: 91f9 0cbe ad02 53bd e379 76bd 862f dfbd
000000a0: 0965 f33c cfeb dabd 5068 2ebd 98e0 8dbd
000000b0: bada 223d e9cd 03be b2c0 b1bd 652b 2cbd
000000c0: 2ec8 e1bd c327 143e 42d1 193e c34b d23d
000000d0: a1f7 703d a365 8bbd a50c 593d cd25 a53d
000000e0: f160 bcbd 6519 48be 2481 ea3b 44cc 6e3d
000000f0: 2bb5 3a3e ac4e a63d f2b0 02be 9e8f 1fbe
00000100: 2a83 ea3d 1651 273e 531a cc3b 2810 d13d
00000110: 90b5 c3bc c374 92bd 3c52 1c3d bdf0 383e
00000120: 76b4 633d a8c5 4abb 0926 83bd 3d81 af3c
00000130: 31b5 49be 3710 61bd 8b40 4cbe 2714 80bd
00000140: d73b 9d3d 62ba 053e 577b b7bd 6a4e aebc
00000150: 15e9 c23d e0cb 10be 8222 1a3e b924 313e
00000160: 93cb 0bbd 0c4c d13d 7184 fe3c 3d72 123e
00000170: 62f4 b9bd 01ca a03d 25fd 92bd 6e9a 9e3d
00000180: cd98 ef3d 7af0 46be 7127 f8bb d160 3cbe
00000190: 550d 29be 5a1e 9dbd d2cc 743d f58e 92bd
000001a0: 8d65 c0bd 54ba c63d 640a 453d 3325 c33d
000001b0: 1aaf 203e cfe5 3bbe ac63 333e d2dd 35be
000001c0: 4023 24bd e6b7 f3bd 3d8e 3c3d d518 383c
000001d0: b183 2f3c 1734 46bd 78b9 8d3d 1e50 04be
000001e0: be19 8ebc dc1f c23d 0988 9c3d 0f15 913d
000001f0: b232 21be 097c 06be 77b0 4e3c 707b 35be

network.1.weight f4 [128]
1.0963105 1.0425156 0.8864587 0.9256326 1.0148841 1.0236961 0.94651717 0.9092383
0.9420251 0.9143386 0.8762969 0.96663755 1.0015272 0.82611275 0.9131883 1.0424882
0.9145388 0.88389194 1.0067714 1.0446548 0.9469828 0.8983901 0.9282891 0.9515945
0.78505117 0.7925548 1.0248355 0.8903116 1.0701262 0.9758252 1.0016235 0.9799109
0.9310794 0.99641746 0.925005 0.82563525 1.0312668 1.0273352 1.0016258 1.0446923
0.93679 0.89834636 1.0872992 1.1109607 0.93542427 0.8041486 0.98092425 0.9819349
0.9926182 1.0030564 0.9860665 0.9522815 0.96600115 0.9445841 1.0158749 1.0019919
1.0176235 0.9068186 0.9385244 0.7784845 0.9834718 1.0163795 0.94508994 1.016724
1.0294449 0.9363248 0.86169875 0.9195097 1.0311913 0.9900831 0.9233453 0.9415006
0.8981451 0.99555963 1.0582373 0.872751 1.0183524 0.8846319 1.0729806 1.0043494
1.0065969 0.9589234 0.8456116 0.9232004 0.9811788 1.031972 1.1370289 1.036666
1.0367823 0.8771699 0.9259124 0.9063776 1.0794568 0.9930806 1.2043474 0.95467645
0.90636855 0.9113185 0.9473564 0.99454576 0.98258865 0.91497266 0.9973146 1.0592823
0.98643774 0.91497767 0.9249786 0.94087434 1.0916679 0.9308584 0.96349984 0.7677142
0.8482536 1.0694824 0.9381434 1.069247 1.0129198 1.0506833 1.0304306 1.059391
0.96572983 1.0172929 0.95383286 0.92807865 0.97717476 0.9733229 0.8958322 1.2921143
00000000: e753 8c3f 2771 853f f5ee 623f 42f6 6c3f
00000010: b9e7 813f 7908 833f f34e 723f d7c3 683f
00000020: 8f28 713f 1812 6a3f fe54 603f 8f75 773f
00000030: 0b32 803f 207c 533f b5c6 693f 4170 853f
00000040: 371f 6a3f be46 623f e3dd 803f 40b7 853f
00000050: 776d 723f e5fc 653f 5ba4 6d3f b29b 733f
00000060: 1df9 483f dfe4 4a3f cf2d 833f 76eb 633f
00000070: e5f9 883f aecf 793f 3335 803f 71db 7a3f
00000080: 385b 6e3f 3715 7f3f 21cd 6c3f d55c 533f
00000090: 8d00 843f b87f 833f 4635 803f 7ab8 853f
000000a0: 78d1 6f3f 07fa 653f 9f2c 8b3f f633 8e3f
000000b0: f777 6f3f afdc 4d3f da1d 7b3f 1660 7b3f
000000c0: 3a1c 7e3f 2764 803f db6e 7c3f b8c8 733f
000000d0: da4b 773f 43d0 713f 3008 823f 4541 803f
000000e0: 7d41 823f 4425 683f 2343 703f c34a 473f
000000f0: cfc4 7b3f b918 823f 6af1 713f 0324 823f
00000100: dac4 833f fbb2 6f3f 4a98 5c3f fd64 6b3f
00000110: 14fe 833f 1676 7d3f 5c60 6c3f 2f06 713f
00000120: d6ec 653f ffdc 7e3f 5274 873f 9c6c 5f3f
00000130: 5f59 823f 3c77 623f 6e57 893f 858e 803f
00000140: 2bd8 803f 017c 753f 007a 583f dd56 6c3f
00000150: 892e 7b3f a917 843f 2a8a 913f 79b1 843f
00000160: 48b5 843f 358e 603f 9808 6d3f 5d08 683f
00000170: a42b 8a3f 883a 7e3f 0e28 9a3f ad65 743f
00000180: c507 683f 2b4c 693f f385 723f 8d9a 7e3f
00000190: ee8a 7b3f a63b 6a3f 0250 7f3f 9096 873f
000001a0: 2f87 7c3f fa3b 6a3f 66cb 6c3f 24dd 703f
000001b0: c6bb 8b3f bc4c 6e3f eda7 763f eb88 443f
000001c0: 2627 593f cde4 883f 2a2a 703f 16dd 883f
000001d0: 5ba7 813f ca7c 863f 26e5 833f 209a 873f
000001e0: 123a 773f a736 823f 642e 743f 9096 6d3f
000001f0: 2028 7a3f b12b 793f 4255 653f 0064 a53f

network.1.bias f4 [128]
-0.3007562 -0.16975836 -0.28976676 -0.15027587 -0.29905266 -0.22026534 -0.1601951 -0.23869948
-0.34652114 -0.18481189 -0.24744569 -0.26687244 -0.29056048 -0.42403075 -0.29418898 -0.109755345
-0.11727846 -0.3859078 -0.13515706 -0.15223609 -0.30766788 -0.2722409 -0.1712093 -0.36589757
-0.38520753 -0.36398864 -0.29432288 -0.32511717 -0.15649949 -0.29865715 -0.06514304 -0.22711504
-0.29121298 -0.3923661 -0.29117644 -0.25757867 -0.12950751 -0.16480938 -0.17781116 -0.13408625
-0.28706488 -0.24384858 -0.3033329 -0.082940534 -0.14199077 -0.30411264 -0.35791865 -0.13271852
-0.12436567 -0.25043947 -0.4222867 -0.34259245 -0.2468815 -0.28900397 -0.22257106 -0.11240886
-0.16955252 -0.36858794 -0.20841682 -0.43016905 -0.19072233 -0.21005827 -0.18895464 -0.17195651
-0.24767531 -0.46283582 -0.5533511 -0.29924157 -0.21639141 -0.2576137 -0.30374286 -0.19942653
-0.23287323 -0.3561286 -0.2381809 -0.38826987 -0.24110979 -0.46840602 -0.116649136 -0.2093345
-0.15840377 -0.1909879 -0.3558259 -0.32859924 -0.36163092 -0.28900313 -0.14315733 -0.15834397
-0.12088036 -0.29543376 -0.33681986 -0.4031127 -0.23599608 -0.16778488 -0.13943113 -0.29713014
-0.47095734 -0.07527281 -0.30532482 -0.2532834 -0.3115248 -0.27691182 -0.14958002 -0.06777979
-0.16609894 -0.31190035 -0.35008657 -0.21243274 -0.25242376 -0.40958154 -0.38034898 -0.40484306
-0.30068383 -0.056848925 -0.26827478 -0.16995364 -0.28754127 -0.08355632 -0.21316949 -0.25437853
-0.3026739 -0.22247346 -0.20250528 -0.19993395 -0.14882018 -0.24516451 -0.28599787 -0.08275406
00000000: b7fc 99be 23d5 2dbe 4f5c 94be ebe1 19be
00000010: 6e1d 99be 3d8d 61be 2f0a 24be a36d 74be
00000020: 386b b1be 543f 3dbe 6762 7dbe 81a3 88be
00000030: 58c4 94be 8f1a d9be f09f 96be 69c7 e0bd
00000040: b02f f0bd b595 c5be 9d66 0abe c7e3 1bbe
00000050: a586 9dbe 2963 8bbe 7e51 2fbe ed56 bbbe
00000060: ec39 c5be b85c babe 7db1 96be c275 a6be
00000070: 6741 20be 97e9 98be b769 85bd d890 68be
00000080: de19 95be 36e4 c8be 1415 95be 5ae1 83be
00000090: 9e9d 04be cac3 28be 2114 36be e84d 09be
000000a0: 2bfa 92be 71b3 79be 734e 9bbe badc a9bd
000000b0: 0766 11be a7b4 9bbe 1d41 b7be 5de7 07be
000000c0: 6eb3 febd 9a39 80be f635 d8be 4768 afbe
000000d0: 81ce 7cbe 54f8 93be abe9 63be 9e36 e6bd
000000e0: 2d9f 2dbe 8fb7 bcbe 386b 55be 1e3f dcbe
000000f0: b74c 43be 8419 57be 537d 41be 5e15 30be
00000100: 999e 7dbe d1f8 ecbe 6ba8 0dbf 3136 99be
00000110: b695 5dbe f1e5 83be 2f84 9bbe 7836 4cbe
00000120: 5276 6ebe 7d56 b6be b2e5 73be 4fcb c6be
00000130: 7ce5 76be ead2 efbe bee5 eebd c85b 56be
00000140: 9934 22be 5592 43be d02e b6be 293e a8be
00000150: b027 b9be 38f8 93be d697 12be ec24 22be
00000160: 1f90 f7bd 1843 97be a773 acbe ca64 cebe
00000170: f5a8 71be cdcf 2bbe 09c7 0ebe 7121 98be
00000180: 5221 f1be a228 9abd 8953 9cbe 5dae 81be
00000190: 2e80 9fbe 63c7 8dbe 812b 19be 21d0 8abd
000001a0: d715 2abe 67b1 9fbe 8c3e b3be f887 59be
000001b0: b03d 81be acb4 d1be 1abd c2be 9747 cfbe
000001c0: 3bf3 99be 6bda 68bd 505b 89be 5408 2ebe
000001d0: 9c38 93be 931f abbd 1a49 5abe e73d 82be
000001e0: 13f8 9abe 15d0 63be 8b5d 4fbe 7cbb 4cbe
000001f0: 5164 18be 680c 7bbe 506e 92be f67a a9bd

network.1.running_mean f4 [128]
0.14813294 0.06300793 -0.13201135 -0.23318963 -0.10932288 -0.019130705 -0.17345361 -0.17790824
0.12163168 -0.04901422 0.056602225 -0.14437598 -0.039428663 -0.0047494713 -0.076773286 -0.009672423
0.05107644 0.05083147 0.17847717 0.03292822 0.017425705 0.16586167 -0.18764405 0.063587606
-0.1692354 0.16547334 -0.07242129 0.053676188 -0.14488052 -0.13742131 0.110430874 0.013922176
0.06887732 0.13383701 -0.21487528 -0.086847655 -0.2349249 -0.08614689 -0.014800509 -0.07825877
0.0178816 -0.06191266 -0.023391457 -0.042274535 0.002625284 -0.15150835 -0.115039624 -0.19064632
-0.022807283 0.12988731 0.14342289 -0.05564822 0.04771307 -0.089066245 0.09393205 0.003290038
-0.07097986 -0.11437661 0.012802361 0.052651554 0.21360005 0.032427773 -0.107526824 -0.31222025
0.022588715 0.17755714 0.0022329483 0.14836648 0.025229473 -0.0018413746 0.033489656 0.18240605
0.059129804 0.045601208 -0.010544843 0.12562653 -0.12884146 -0.1348331 -0.34156 -0.12277365
0.114073254 0.07072873 -0.037436888 -0.043512806 0.12566496 -0.07762175 0.08796598 0.23890592
-0.042980008 0.014799965 0.009011586 0.21655728 -0.07522566 0.0606853 -0.00022284969 0.05870612
0.18221755 -0.24689087 0.011226762 -0.19422784 -0.1134125 -0.0056441627 -0.062426664 -0.11544844
-0.036743693 0.057169616 0.008531515 0.12753783 0.1407356 -0.121352896 0.19265284 -0.23888072
-0.08945702 -0.114785574 0.037563253 0.09297361 0.055509068 -0.07765135 -0.017666928 -0.12724651
0.03453315 0.15005426 0.10710709 0.030706672 -0.12236646 -0.11729354 0.0019358821 -0.14313495
00000000: 29b0 173e 4d0a 813d fc2d 07be 43c9 6ebe
00000010: ade4 dfbd ffb7 9cbc d39d 31be 942d 36be
00000020: 081a f93d 22c3 48bd bcd7 673d 4cd7 13be
00000030: f37f 21bd 74a1 9bbb 503b 9dbd 1579 1ebc
00000040: 8735 513d a934 503d b8c2 363e bedf 063d
00000050: 5ac0 8e3c a4d7 293e c325 40be 383a 823d
00000060: 0b4c 2dbe d871 293e 9d51 94bd 90db 5b3d
00000070: 8f5b 14be 2cb8 0cbe 9529 e23d d719 643c
00000080: 8d0f 8d3d 920c 093e 4408 5cbe 2fdd b1bd
00000090: 2790 70be c86d b0bd d67d 72bc 2246 a0bd
000000a0: 6f7c 923c 2198 7dbd 719f bfbc 1028 2dbd
000000b0: f50c 2c3b 0125 1bbe e599 ebbd ca38 43be
000000c0: 57d6 babc 2e01 053e 73dd 123e 63ef 63bd
000000d0: c86e 433d 5d68 b6bd 725f c03d ae9d 573b
000000e0: e45d 91bd 493e eabd fec0 513c 28a9 573d
000000f0: f9b9 5a3e fcd2 043d 0637 dcbd 55db 9fbe
00000100: f80b b93c 8ad1 353e a856 123b 62ed 173e
00000110: 0aae ce3c 475a f1ba 732c 093d a7c8 3a3e
00000120: 1832 723d 55c8 3a3d 47c4 2cbc 3ea4 003e
00000130: 04ef 03be b011 0abe f4e0 aebe c070 fbbd
00000140: 3d9f e93d 39da 903d 6c57 19bd 7c3a 32bd
00000150: 51ae 003e 27f8 9ebd 8227 b43d c1a3 743e
00000160: ce0b 30bd 8d7b 723c 55a5 133c 31c1 5d3e
00000170: e90f 9abd 2691 783d c2ac 69b9 d475 703d
00000180: 3d97 3a3e f6d0 7cbe 74f0 373c aae3 46be
00000190: d044 e8bd abf2 b8bb 1ab3 7fbd 3b70 ecbd
000001a0: 8e80 16bd b02a 6a3d c4c7 0b3c 4799 023e
000001b0: fe1c 103e de87 f8bd c946 453e 269d 74be
000001c0: 3e35 b7bd b314 ebbd eddb 193d f368 be3d
000001d0: 7a5d 633d ac07 9fbd 3cba 90bc e94c 02be
000001e0: a272 0d3d d3a7 193e f65a db3d 8f8c fb3c
000001f0: 449b fabd 9837 f0bd 6dbd fd3a f891 12be

network.1.running_var f4 [128]
1.3377185 0.39362755 0.5374405 0.47086546 0.7769984 0.50443214 0.42334598 0.48438257
1.6862895 0.4995036 0.47209764 0.50693005 0.8247282 0.8573478 0.73030627 1.3093379
0.82316417 0.5783638 0.76873165 0.6374063 0.3565296 0.44322377 0.85437226 0.4248228
0.26395687 1.3749793 0.35408252 1.0134982 0.74769884 0.98471385 0.32866713 0.49173507
0.51294816 0.49409395 0.71467006 0.35076547 0.3734528 0.508601 0.34657767 0.51822555
0.5498232 0.38941458 0.32579178 0.44716647 0.29337662 0.44868565 0.5164351 0.65094
0.620385 0.60105 0.7928553 0.55256546 0.55055386 0.26890373 1.1399579 0.5678125
0.6184136 0.37890196 0.44198415 0.7605856 0.43337768 0.588371 0.71298224 0.9505623
0.44702074 0.54826915 0.57061094 1.2914988 0.44742334 0.48280665 0.570004 0.30943847
0.75307506 1.0747777 0.3112355 0.6992213 0.7296147 0.5149172 0.72580034 0.56285197
0.553495 0.3861856 0.6831697 0.4781305 0.60097057 0.5518424 0.8061741 0.74073714
0.36546087 0.5028203 0.5879049 1.1557668 0.35991752 0.69534487 0.3507516 0.6294125
1.1980405 0.36374238 0.777088 0.9563715 0.96964693 0.37773043 1.277319 0.88415927
0.32657775 0.7620449 0.5372323 0.5241073 0.5838005 0.34140873 0.5732586 0.61602503
0.88833547 0.90641904 0.62100613 0.5403432 0.6619817 0.51867086 0.6888921 0.57959443
0.3095697 0.3452295 0.5934873 0.73598325 0.63093305 0.882121 0.43964583 0.52315557
00000000: 5c3a ab3f 8d89 c93e b395 093f 4715 f13e
00000010: 5ee9 463f 7722 013f cec0 d83e fe00 f83e
00000020: 56d8 d73f f0be ff3e c8b6 f13e 2bc6 013f
00000030: 6321 533f 257b 5b3f 5af5 3a3f 6298 a73f
00000040: e3ba 523f a60f 143f 99cb 443f 0f2d 233f
00000050: 0c8b b63e 3aee e23e 24b8 5a3f 6082 d93e
00000060: 5b25 873e 52ff af3f 4e4a b53e 4fba 813f
00000070: 3169 3f3f 3516 7c3f 0f47 a83e b3c4 fb3e
00000080: 9250 033f e2f9 fc3e 9ef4 363f 8897 b33e
00000090: 3535 bf3e ad33 023f a172 b13e 6eaa 043f
000000a0: 37c1 0c3f 5961 c73e 2ece a63e 01f3 e43e
000000b0: 7635 963e 20ba e53e 1735 043f 01a4 263f
000000c0: 8dd1 1e3f 6ade 193f 91f8 4a3f ee74 0d3f
000000d0: 19f1 0c3f c0ad 893e 24ea 913f 295c 113f
000000e0: 5b50 1e3f 70ff c13e bf4b e23e bdb5 423f
000000f0: aee3 dd3e 7b9f 163f 0186 363f 0d58 733f
00000100: e7df e43e 5e5b 0c3f 8f13 123f d54f a53f
00000110: ac14 e53e 6f32 f73e c8eb 113f b86e 9e3e
00000120: 87c9 403f 5192 893f 425a 9f3e 2b00 333f
00000130: 07c8 3a3f 9dd1 033f 0dce 393f 1117 103f
00000140: d9b1 0d3f 1eba c53e 36e4 2e3f 85cd f43e
00000150: 35d9 193f 8b45 0d3f 6d61 4e3f f3a0 3d3f
00000160: b01d bb3e d5b8 003f ef80 163f 2bf0 933f
00000170: 1c47 b83e 1f02 323f b795 b33e 2d21 213f
00000180: 6459 993f 713c ba3e 3def 463f c3d4 743f
00000190: c83a 783f e265 c13e 307f a33f 4358 623f
000001a0: 3335 a73e 6015 433f 0e88 093f e52b 063f
000001b0: f373 153f 20cd ae3e 13c1 123f d1b3 1d3f
000001c0: f469 633f 140b 683f 42fa 1e3f ef53 0a3f
000001d0: a277 293f 9dc7 043f 3c5b 303f 4d60 143f
000001e0: eb7f 9e3e ecc1 b03e c9ee 173f 6669 3c3f
000001f0: d484 213f afd2 613f 4219 e13e 86ed 053f

network.4.weight f4 [64, 128]
0.19083406 0.01728426 0.11895783 0.03155922 0.07249707 -0.010159157 -0.10456107 0.21931897
-0.19413003 -0.048473164 0.0710486 0.093089506 0.17116989 0.11787578 -0.0036745465 -0.014990387
0.016393393 0.063063346 0.27697447 0.16487715 0.17672825 0.114062645 -0.16191229 0.04392908
0.106176764 -0.10957978 0.0688725 0.044751186 -0.035749625 -0.18358025 0.12831582 -0.0926971
0.1346518 -0.08950925 -0.061961327 0.114011 -0.1016654 -0.07082029 0.17133924 0.002264923
-0.23287168 -0.07026713 0.16864234 0.007047357 0.15458578 -0.10995543 -0.04969215 -0.049530756
0.07993997 0.041212652 -0.20240328 0.17419991 -0.3301605 -0.23031151 -0.05189942 -0.078474194
0.048825387 0.17615397 0.055298373 0.1443152 -0.10274061 -0.13055187 0.0039754696 -0.07724357
-0.24599467 -0.18668306 0.06315481 0.03550123 0.09958069 -0.08421301 -0.04628605 0.14642191
-0.05020582 0.0666018 0.09307578 -0.059163537 0.1679129 -0.23538174 -0.15800577 -0.009523336
0.0218922 0.029534174 -0.06412581 0.01919668 -0.18448831 0.27532268 -0.21261755 0.00452646
0.11221796 -0.13697353 -0.5823035 0.03266524 -0.11208806 0.07897157 0.13371433 -0.102416225
-0.12162534 0.095609024 0.08580243 0.16437826 0.120412506 0.07406603 -0.14064449 -0.09737096
-0.0035904048 0.022934685 0.0074600712 -0.07696353 -0.13158163 0.02832886 -0.046683017 0.03402015
0.07294147 0.083251975 0.038376532 -0.013976165 -0.02336386 -0.055577748 0.19093785 0.029932706
-0.020796567 0.045272835 0.034573525 -0.2568169 0.21489656 0.12934266 0.07923475 0.088071644
0.04315607 0.031990327 -0.10766566 -0.049094997 0.19747905 -0.28794834 -0.13455707 0.05545541
0.19080341 -0.121824965 0.017846253 0.069990076 0.17470889 0.31480917 -0.08638024 -0.07209322
0.055051334 -0.093845986 -0.11096425 0.10677384 0.12724775 -0.027916245 0.068164684 0.19509804
-0.107829906 0.14853281 0.15649606 0.17455447 0.09392641 0.11314518 0.026089322 0.12467297
0.2864965 0.1465431 -0.06488471 -0.17194612 -0.07731245 0.010878497 -0.15163656 -0.014497452
0.13012445 0.03447865 -0.05518368 0.20734605 -0.25097802 0.00759187 0.20487028 -0.11570818
-0.084068455 0.0220584 0.1492418 -0.019208763 0.0072946404 -0.41092753 -0.07868888 -0.040411673
0.0038992395 0.19989601 0.00026138034 0.11283366 0.049699258 -0.046855755 0.17407793 -0.18346342
-0.029951353 0.113399155 -0.22404218 -0.010460817 0.01622051 0.1050512 -0.09250362 -0.17464525
0.16610426 -0.013887602 0.07805653 0.077587 -0.050671946 -0.019933846 -0.21430078 0.016705692
-0.0032118594 0.16837023 0.13610181 0.08782386 0.07037451 0.11960457 0.104616374 -0.037545778
-0.019771058 0.052711513 0.10085341 0.2706556 -0.062417444 0.031645145 0.06140189 0.15078667
0.13995436 -0.037233416 -0.21147256 0.035620913 -0.16437097 -0.028316326 -0.07706181 -0.16485476
0.051868305 -0.22631975 0.08981761 -0.22950082 0.05641445 0.10886053 0.12297881 -0.22370526
0.15653053 -0.0880597 -0.21354263 0.11858578 -0.065646954 0.083288446 0.47079954 0.13878171
0.0023112693 -0.11533923 0.0730466 0.0708533 0.1360414 0.10533248 0.17380823 0.08307995
00000000: 016a 433e b897 8d3c 2aa0 f33d 3e44 013d
00000010: 5879 943d 9872 26bc 1d24 d6bd 2795 603e
00000020: 06ca 46be cc8b 46bd ee81 913d b6a5 be3d
00000030: 2947 2f3e db68 f13d a9d0 70bb 3d9a 75bc
00000040: 704b 863c 5b27 813d 99cf 8d3e 8ed5 283e
00000050: 40f8 343e ad99 e93d 56cc 25be fbee 333d
00000060: 3473 d93d 5d6b e0bd 060d 8d3d 054d 373d
00000070: 336e 12bd 76fc 3bbe 3965 033e fad7 bdbd
00000080: 29e2 093e a050 b7bd 29cb 7dbd 997e e93d
00000090: f335 d0bd 3a0a 91bd 8e73 2f3e 1a6f 143b
000000a0: ea75 6ebe 37e8 8fbd 94b0 2c3e 84ed e63b
000000b0: bc4b 1e3e 5030 e1bd ff89 4bbd c3e0 4abd
000000c0: 91b7 a33d 99ce 283d ce42 4fbe 7661 323e
000000d0: cc0a a9be c8d6 6bbe 7c94 54bd 14b7 a0bd
000000e0: 21fd 473d b561 343e 8c80 623d 5dc7 133e
000000f0: ab69 d2bd 64af 05be a844 823b e031 9ebd
00000100: 07e6 7bbe d829 3fbe 4f57 813d bd69 113d
00000110: f6f0 cb3d df77 acbd 7196 3dbd a0ef 153e
00000120: 9ea4 4dbd 8666 883d 849e be3d 7755 72bd
00000130: 5cf1 2b3e e907 71be 44cc 21be c407 1cbc
00000140: 4557 b33c a7f1 f13c 6554 83bd 5b42 9d3c
00000150: 81ea 3cbe 18f7 8c3e 6ab8 59be b352 943b
00000160: 88d2 e53d ca42 0cbe d811 15bf fdcb 053d
00000170: 6d8e e5bd d9bb a13d 69ec 083e 99bf d1bd
00000180: b516 f9bd aace c33d 2fb9 af3d c652 283e
00000190: d59a f63d eeaf 973d 1c05 10be 6d6a c7bd
000001a0: ff4c 6bbb 85e1 bb3c 9d73 f43b 0e9f 9dbd
000001b0: 56bd 06be ed11 e83c b136 3fbd b658 0b3d
000001c0: 5662 953d 0380 aa3d b630 1d3d 49fc 64bc
000001d0: 9165 bfbc 7ea5 63bd 3685 433e 6f35 f53c
000001e0: 905d aabc 0270 393d f89c 0d3d 817d 83be
000001f0: d80d 5c3e 6772 043e d445 a23d e85e b43d
00000200: 6bc4 303d 4a08 033d d07f dcbd d617 49bd
00000210: f337 4a3e f76d 93be 54c9 09be 3625 633d
00000220: f861 433e 5e7f f9bd 4e32 923c f556 8f3d
00000230: e3e6 323e ab2e a13e 20e8 b0bd 9ca5 93bd
00000240: 827d 613d 5332 c0bd 3a41 e3bd 3eac da3d
00000250: 3c4d 023e 9cb0 e4bc ed99 8b3d c8c7 473e
00000260: edd5 dcbd fc18 183e 8140 203e 68be 323e
00000270: 7d5c c03d a9b8 e73d 46b9 d53c 8b54 ff3d
00000280: abaf 923e 650f 163e 46e2 84bd a512 30be
00000290: fd55 9ebd b93b 323c 9d46 1bbe b986 6dbc
000002a0: 583f 053e 7c39 0d3d 4808 62bd 8652 543e
000002b0: 3180 80be 39c5 f83b 84c9 513e 69f8 ecbd
000002c0: 152c acbd d1b3 b43c d8d2 183e b25b 9dbc
000002d0: e107 ef3b 1865 d2be a327 a1bd b686 25bd
000002e0: 628a 7f3b 8ab1 4c3e e009 8939 5515 e73d
000002f0: 7391 4b3d d2eb 3fbd 7c41 323e d6dd 3bbe
00000300: 8a5c f5bc d13d e83d 506b 65be d963 2bbc
00000310: e0e0 843c 1525 d73d 8a72 bdbd 34d6 32be
00000320: 3c17 2a3e d388 63bc 1adc 9f3d efe5 9e3d
00000330: 638d 4fbd 4e4c a3bc aa71 5bbe 60da 883c
00000340: 0f7e 52bb 3f69 2c3e 465e 0b3e ffdc b33d
00000350: 8320 903d 3ef3 f43d 1c41 d63d 9ac9 19bd
00000360: eaf6 a1bc 07e8 573d 3c8c ce3d 5f93 8a3e
00000370: 6fa9 7fbd 579e 013d 8c80 7b3d d267 1a3e
00000380: 3250 0f3e 1182 18bd 438c 58be 3ce7 113d
00000390: dd50 28be a4f7 e7bc 95d2 9dbd b0cf 28be
000003a0: dc73 543d 5dc0 67be 4cf2 b73d 4302 6bbe
000003b0: d712 673d 45f2 de3d 50dc fb3d fe12 65be
000003c0: 8a49 203e a558 b4bd ebaa 5abe 1add f23d
000003d0: e971 86bd 2293 aa3d a30c f13e cb1c 0e3e
000003e0: aa78 173b f936 ecbd 7599 953d 891b 913d
000003f0: 704e 0b3e 8eb8 d73d c9fa 313e d225 aa3d

network.4.bias f4 [64]
0.021921512 -0.102252334 -0.05109576 0.04192255 -0.0005278788 -0.08869979 -0.14901046 -0.019209882
0.021181606 0.0667544 -0.08159415 -0.047251116 0.15068412 0.0097038215 0.05612552 -0.13639905
0.080164656 -0.028535612 0.027805315 0.055041187 -0.009497035 -0.13574061 -0.083610035 0.052892797
-0.13758545 0.006584455 -0.02006103 0.059061445 0.08913622 0.025592988 0.06426164 -0.011343261
0.05942498 -0.03497921 -0.00016215906 0.078263104 -0.021146873 0.017922122 0.024365852 0.106435575
0.12393282 -0.07862717 0.008631872 0.0705785 0.05928613 -0.06288337 -0.023595136 -0.104732215
0.024434246 0.11171498 0.09179735 0.10112269 0.11440895 0.03530781 0.009526747 0.026883602
-0.022625698 0.07429545 0.038354024 0.046179038 0.10339968 0.054767624 -0.045761745 0.06633298
00000000: be94 b33c ac69 d1bd ca49 51bd fbb6 2b3d
00000010: 5961 0aba 3ca8 b5bd 3396 18be 0b5e 9dbc
00000020: 0c85 ad3c 88b6 883d d51a a7bd 638a 41bd
00000030: f04c 1a3e c7fc 1e3c e0e3 653d 31ac 0bbe
00000040: 5e2d a43d 84c3 e9bc f9c7 e33c de72 613d
00000050: 7499 1bbc 96ff 0abe bd3b abbd 1ea6 583d
00000060: 33e3 0cbe 69c2 d73b 0757 a4bc 6aea 713d
00000070: 0d8d b63d 63a8 d13c 9b9b 833d 16d9 39bc
00000080: 9c67 733d 5c46 0fbd 3e09 2ab9 6848 a03d
00000090: 353c adbc 6ad1 923c e59a c73c e5fa d93d
000000a0: 7ed0 fd3d 4807 a1bd b26c 0d3c 768b 903d
000000b0: 03d6 723d ffc8 80bd 964a c1bc d87d d6bd
000000c0: 542a c83c d3ca e43d 4000 bc3d 6a19 cf3d
000000d0: 3d4f ea3d ec9e 103d 1316 1c3c 003b dc3c
000000e0: 8759 b9bc 3628 983d 1c19 1d3d 3b26 3d3d
000000f0: 36c3 d33d 0454 603d ab70 3bbd 96d9 873d

network.5.weight f4 [64]
1.1206955 1.1429607 1.1086863 1.1521904 1.2046355 1.1322081 1.0554397 1.2697449
1.1270974 1.2543635 1.0840348 1.2073519 1.0535989 1.0825313 1.1821152 1.1227791
1.0642062 1.1707497 1.1399407 1.1987343 1.1632881 1.1879995 1.1669344 1.2510171
1.0183216 1.1920003 1.1159847 1.0849699 1.2166114 1.0754893 1.1294645 1.0408652
1.1431813 1.1351539 1.0648311 1.1500639 1.078437 1.1092812 1.1839628 1.1792223
1.0710894 1.1131651 1.2170575 1.0489007 1.0629661 1.0920305 1.1222073 1.1714249
1.1586796 1.067727 1.1918783 1.040403 1.0002757 1.1245512 0.99696857 1.001868
1.0159729 1.1570534 1.1653669 1.1406109 1.0961221 1.2560474 1.0618443 1.1359792
00000000: f372 8f3f 894c 923f 6fe9 8d3f fa7a 933f
00000010: 7f31 9a3f 32ec 903f a618 873f 0087 a23f
00000020: ba44 903f fc8e a03f a7c1 8a3f 828a 9a3f
00000030: 54dc 863f 6390 8a3f 8d4f 973f 3ab7 8f3f
00000040: e937 883f 20db 953f 94e9 913f 2070 993f
00000050: a0e6 943f 5e10 983f 1b5e 953f 5421 a03f
00000060: 5d58 823f 7793 983f 96d8 8e3f 4be0 8a3f
00000070: ecb9 9b3f a2a9 893f 4b92 903f 123b 853f
00000080: c453 923f b94c 913f 634c 883f 4b35 933f
00000090: 390a 8a3f edfc 8d3f 188c 973f c2f0 963f
000000a0: 7519 893f 327c 8e3f 8ac8 9b3f 6142 863f
000000b0: 460f 883f a8c7 8b3f 7da4 8f3f 40f1 953f
000000c0: 9d4f 943f 47ab 883f 788f 983f ed2b 853f
000000d0: 0909 803f 4bf1 8f3f 5539 7f3f 363d 803f
000000e0: 660b 823f 531a 943f be2a 953f 8aff 913f
000000f0: bb4d 8c3f 29c6 a03f 84ea 873f c467 913f

network.5.bias f4 [64]
-0.44772318 -0.21655083 -0.3904459 -0.40413597 -0.16643685 -0.09546504 -0.19895013 -0.25796956
-0.21363531 -0.14707871 -0.27201504 -0.14243391 -0.303518 -0.3675547 -0.38699588 -0.13794208
-0.3440533 -0.038093045 -0.18946248 -0.15438546 -0.04731945 -0.21813479 -0.39926818 -0.20535952
-0.26224613 -0.19421926 -0.11170607 -0.4659307 -0.25326946 -0.2103614 -0.17522897 -0.5588711
-0.23681208 -0.29415226 -0.3489013 -0.33269566 -0.33263093 -0.19145846 -0.14605883 -0.15895355
-0.25200492 -0.3010682 -0.23859285 -0.411971 -0.39131388 -0.18147893 -0.38567734 -0.13345377
-0.42324656 -0.29494163 -0.18305713 -0.6235771 -0.06962478 -0.3755916 -0.21824972 -0.31235865
-0.40963888 -0.43108454 -0.2998394 -0.46465936 -0.20484166 -0.14773397 -0.3880004 -0.24141231
00000000: f93b e5be 80bf 5dbe 86e8 c7be e9ea cebe
00000010: 6c6e 2abe 2d83 c3bd 95b9 4bbe 9614 84be
00000020: 37c3 5abe cd9b 16be 8e45 8bbe 32da 11be
00000030: b666 9bbe 2130 bcbe 5324 c6be b040 0dbe
00000040: c127 b0be 7407 1cbd 7402 42be 3917 1ebe
00000050: 0ad2 41bd ba5e 5fbe e16c ccbe c449 52be
00000060: 2045 86be 6ae1 46be 27c6 e4bd 788e eebe
00000070: 89ac 81be fb68 57be 396f 33be 2d12 0fbf
00000080: de7e 72be 209b 96be 31a3 b2be 1657 aabe
00000090: 9a4e aabe b00d 44be 7290 15be b8c4 22be
000000a0: ca06 81be 9c25 9abe af51 74be dded d2be
000000b0: 4b5a c8be 9dd5 39be 8077 c5be 1ba8 08be
000000c0: c6b3 d8be 9702 97be 5473 3bbe c0a2 1fbf
000000d0: 7097 8ebd 8b4d c0be db7c 5fbe 79ed 9fbe
000000e0: 30bc d1be 1db7 dcbe 8d84 99be d5e7 edbe
000000f0: 03c2 51be 9347 17be fda7 c6be ca34 77be

network.5.running_mean f4 [64]
0.27515706 0.42951748 -0.8874799 0.761912 0.33112624 -0.4852402 -0.77918994 -0.2527246
-0.8472778 -0.6650217 -0.2712917 0.29492706 -0.401271 0.36417574 0.3747887 -0.77950454
-0.24698578 -0.43634358 -0.08055012 0.40645927 0.15291391 -0.633325 0.0803752 -0.9651017
-0.85390913 -0.9771482 -0.7059492 -1.0641006 -0.4832999 -0.09185249 -0.6754355 -0.11110197
-0.80922747 -0.13925262 0.07514452 0.59966034 -0.8585465 -0.56230086 -0.9368911 -0.05096002
-0.6090238 -0.78944886 0.4674424 -1.0901911 -0.46377012 -0.9093038 -0.91243696 -0.7113261
0.4398056 0.21742533 -0.44265497 -1.3067648 -0.0947285 -0.90116334 0.10120123 -0.40350282
-0.32579002 0.48863083 0.029744165 -0.25209624 -0.74946344 -0.5553277 -0.88757384 -0.78313893
00000000: 63e1 8c3e b7e9 db3e e231 63bf aa0c 433f
00000010: 6189 a93e 6771 f8be fe78 47bf 1e65 81be
00000020: 33e7 58bf dd3e 2abf bfe6 8abe ae00 973e
00000030: 6473 cdbe 3e75 ba3e 4ee4 bf3e 9c8d 47bf
00000040: d7e9 7cbe 6d68 dfbe 76f7 a4bd 6e1b d03e
00000050: 7795 1c3e 9621 22bf c19b a43d e810 77bf
00000060: ca99 5abf 6226 7abf 16b9 34bf 7334 88bf
00000070: 1673 f7be 291d bcbd 57e9 2cbf 6e89 e3bd
00000080: 8829 4fbf 3d98 0ebe 5fe5 993d 5783 193f
00000090: b4c9 5bbf f3f2 0fbf 18d8 6fbf 74bb 50bd
000000a0: fce8 1bbf 5219 4abf 9c54 ef3e 628b 8bbf
000000b0: 4773 edbe 22c8 68bf 7895 69bf 7819 36bf
000000c0: 332e e13e bfa4 5e3e aca3 e2be 1244 a7bf
000000d0: 0401 c2bd a4b2 66bf 9742 cf3d ec97 cebe
000000e0: f3cd a6be d22d fa3e 09aa f33c c212 81be
000000f0: d6dc 3fbf f529 0ebf 0a38 63bf cb7b 48bf

network.5.running_var f4 [64]
0.9219369 1.1235065 1.2139556 1.1387246 1.7628304 1.157594 0.8638331 1.006145
1.3014535 1.6519743 1.1933216 1.1683019 1.2429616 0.86631423 1.2155648 0.9468556
2.2421746 1.7554487 0.914479 1.8216447 0.805358 1.3708367 1.0109196 1.8197408
0.803179 1.0683197 1.6840318 1.7720767 1.6394458 1.006011 1.8350583 0.9905465
1.6425843 1.0203114 1.0482577 1.3898925 2.2018135 1.8873105 1.463965 2.5424666
1.183973 1.825308 1.0307904 2.571451 1.0408103 1.6514223 2.2092478 2.0660017
0.71382785 1.128112 1.3231821 1.5565028 0.8109122 1.4023421 1.216228 0.75517887
0.88657904 1.3511263 1.41837 1.0124415 1.2401999 2.7760623 1.7615792 1.1047528
00000000: 0f04 6c3f 10cf 8f3f e662 9b3f bac1 913f
00000010: 6da4 e13f 0a2c 943f 2b24 5d3f 5cc9 803f
00000020: 0796 a63f e573 d33f c3be 983f eb8a 953f
00000030: 5e19 9f3f c5c6 5d3f a197 9b3f 2165 723f
00000040: ca7f 0f40 8bb2 e03f 4c1b 6a3f a72b e93f
00000050: f12b 4e3f 9477 af3f d065 813f 44ed e83f
00000060: 249d 4d3f b3be 883f 5b8e d73f 69d3 e23f
00000070: 5cd9 d13f f8c4 803f 31e3 ea3f 7594 7d3f
00000080: 3440 d23f 9099 823f 4f2d 863f ffe7 b13f
00000090: 83ea 0c40 6493 f13f 3563 bb3f c6b7 2240
000000a0: 6d8c 973f b1a3 e93f f1f0 833f a792 2440
000000b0: 4639 853f ce61 d33f 5164 0d40 5f39 0440
000000c0: 6cbd 363f f965 903f 085e a93f 7c3b c73f
000000d0: f197 4f3f f27f b33f 5cad 9b3f 6753 413f
000000e0: d8f6 623f b5f1 ac3f 268d b53f af97 813f
000000f0: dfbe 9e3f 01ab 3140 6d7b e13f 8a68 8d3f

network.8.weight f4 [3, 64]
-0.39000767 -0.24035908 0.24071719 -0.38030833 0.22993067 -0.37012845 -0.20986372 0.15656711
-0.29622203 0.029999156 -0.05147949 0.22591016 0.088557154 0.107081585 -0.36336276 -0.29835102
0.21904407 0.1801884 0.09628628 0.17042239 0.21698052 -0.32771546 0.18435779 0.14821152
0.009227084 -0.3890424 0.17552347 0.2459148 0.15016314 -0.25607625 -0.28624254 -0.34301338
0.14398625 -0.32961667 -0.26549238 0.2001722 0.258075 0.13933463 0.16664578 0.14821778
-0.054296106 0.22242562 0.051311087 0.2597586 0.008508303 0.073571995 0.17552933 0.21173626
0.27849212 -0.009647071 0.15218714 0.3470971 -0.1853277 0.16155738 -0.021029161 -0.11808625
0.058218785 -0.42644033 0.28713053 -0.40172556 -0.26096982 0.17407028 0.19326735 -0.2825102
0.29804653 0.023592534 -0.33844355 0.20906946 -0.2939541 -0.013158583 0.09169781 -0.4348025
0.20575677 0.025687039 -0.27304468 -0.22052494 0.109282486 -0.35719883 0.19216004 0.16889544
-0.28147334 0.15006831 -0.29519734 0.12665278 -0.15103082 0.18398225 -0.41254452 0.13859217
-0.23007658 0.12513985 0.117147 -0.31044558 0.1839411 0.042003278 0.13970512 0.37384912
0.1076344 0.004374406 -0.057828713 -0.33952537 -0.21715966 -0.33184314 0.20262907 0.13632552
-0.24329604 -0.14427987 -0.3985776 -0.36943597 -0.21399935 0.022706004 -0.35073143 0.14017437
-0.33674052 -0.33665168 0.13699502 -0.3170664 0.15614867 -0.27241597 -0.21951802 -0.20946717
0.22507803 0.17755279 -0.3600915 0.20817055 0.09231334 0.06457376 -0.2832795 0.18802632
0.007860311 0.22716172 0.10795488 0.08961167 0.077151716 0.07705943 0.19947033 -0.005696404
0.13796851 -0.40521315 0.15970182 0.08310081 -0.30877218 0.079572834 0.1402823 0.16548082
0.06664164 -0.22908846 0.10915895 -0.16007072 0.15603474 0.1830815 0.048906464 -0.36932537
0.1367692 0.07579674 -0.18253405 0.12866628 -0.35840297 0.109837174 0.22159931 -0.112153314
-0.291093 0.12685408 0.22297396 -0.008645959 -0.16339079 0.0819061 -0.2343649 -0.30283004
0.19626549 -0.29579076 0.12082437 -0.074194394 0.29334623 -0.29179087 -0.02325108 -0.31551892
0.14803608 0.17428434 -0.27403414 0.0041784747 0.12845851 0.24828053 0.16409099 0.21418504
-0.28359947 0.15451933 0.1094883 0.03118568 0.106512144 -0.3415909 -0.009028285 0.15233722
00000000: 16af c7be b120 76be 917e 763e c6b7 c2be
00000010: f272 6b3e 7a81 bdbe 84e6 56be 2153 203e
00000020: 6aaa 97be cac0 f53c 28dc 52bd fe54 673e
00000030: 745d b53d 974d db3d af0a babe 77c1 98be
00000040: 174d 603e 4f83 383e be31 c53d 3583 2e3e
00000050: 2430 5e3e 52ca a7be 4ac8 3c3e c3c4 173e
00000060: 322d 173c 9130 c7be 6dbc 333e 17d1 7b3e
00000070: 5ec4 193e 6d1c 83be 628e 92be 739f afbe
00000080: 2271 133e 84c3 a8be 9eee 87be f1f9 4c3e
00000090: 6822 843e bdad 0e3e 31a5 2a3e 67c6 173e
000000a0: 9865 5ebd 8bc3 633e 932b 523d 14ff 843e
000000b0: 6966 0b3c eaac 963d f6bd 333e 64d1 583e
000000c0: 8596 8e3e c00e 1ebc f2d6 1b3e b6b6 b13e
000000d0: 8bc6 3dbe 4c6f 253e 5945 acbc 34d7 f1bd
000000e0: d276 6e3d 6356 dabe c602 933e f9ae cdbe
000000f0: d69d 85be 7b3f 323e e0e7 453e 2da5 90be
00000100: 8e99 983e 2145 c13c 7948 adbe 4e16 563e
00000110: 2781 96be 1997 57bc 10cc bb3d 6f9e debe
00000120: e7b1 523e a06d d23c 83cc 8bbe 4ad1 61be
00000130: 7fcf df3d c4e2 b6be 9ac5 443e edf2 2c3e
00000140: 461d 90be 82ab 193e 1b24 97be 44b1 013e
00000150: d3a7 1abe d865 3c3e 0939 d3be 1beb 0d3e
00000160: 3299 6bbe a924 003e c4ea ef3d b9f2 9ebe
00000170: 0e5b 3c3e a10b 2c3d dc0e 0f3e 2769 bf3e
00000180: 6d6f dc3d 2d57 8f3b cddd 6cbd 45d6 adbe
00000190: 1a5f 5ebe 58e7 a9be ff7d 4f3e eb98 0b3e
000001a0: 9922 79be 1abe 13be 5d12 ccbe b626 bdbe
000001b0: a522 5bbe f101 ba3c 1293 b3be df89 0f3e
000001c0: 4169 acbe 9c5d acbe 6c48 0c3e 8756 a2be
000001d0: 70e5 1f3e 1b7a 8bbe 55c9 60be 907e 56be
000001e0: db7a 663e 66d0 353e ea5d b8be a92a 553e
000001f0: c70e bd3d 3f3f 843d 030a 91be f989 403e
00000200: 89c8 003c 159d 683e 7317 dd3d 5386 b73d
00000210: b801 9e3d 56d1 9d3d f341 4c3e e6a8 babb
00000220: 9e47 0d3e 1978 cfbe e088 233e c230 aa3d
00000230: 6317 9ebe 15f7 a23d 2aa6 0f3e ce73 293e
00000240: 6a7b 883d 2a96 6abe ba8e df3d 94e9 23be
00000250: 92c7 1f3e b779 3b3e 2552 483d 3718 bdbe
00000260: 3a0d 0c3e 523b 9b3d 35ea 3abe 18c1 033e
00000270: 9880 b7be 50f2 e03d eeea 623e a3b0 e5bd
00000280: 240a 95be 09e6 013e 4953 643e c8a7 0dbc
00000290: ea4f 27be 63be a73d 5afd 6fbe 8a0c 9bbe
000002a0: d2f9 483e e371 97be c472 f73d 3bf3 97bd
000002b0: 7a31 963e 9d65 95be 0d79 bebc b28b a1be
000002c0: c596 173e 9877 323e 344e 8cbe 96eb 883b
000002d0: a18a 033e 403d 7e3e 7807 283e 5353 5b3e
000002e0: f333 91be 513a 1e3e 673b e03d 1c79 ff3c
000002f0: 0a23 da3d 01e5 aebe 5feb 13bc 4afe 1b3e

network.8.bias f4 [3]
-0.35068196 -0.030736981 0.26334947
00000000: 968c b3be 1fcc fbbc bed5 863e
