experiments/models/trained_models/warmup_enhanced_d33_h256_128_64_32_drop0.3_619a71b3f12d.pt (torch, 221613 bytes, 18 tensors)

input_projection.0.weight f4 [256, 33]
00000000: 4a74 44ba 77da 85be 4929 b1bd 2d07 a8bd
00000010: ac65 403e 93e3 023d d93e ae3d d58c bb3d
00000020: 5106 00be 4e7c 933d 43ea 663e f690 01bd
00000030: fb9a 43bd bf3f cdbd 2f78 3ebe 831c 3abe
00000040: 91e1 213e 0219 fe3d 0b06 33bc d6f0 30be
00000050: 3499 62be e8c4 2a3e 1c0b 5d3e 93c9 e93d
00000060: 849a 3bbd 475f 5dbe 084e afbd ad64 043f
00000070: 100a 49be 057e 2a3e dd3f 9e3c bd26 c23c
00000080: 2a16 5f3e 5789 3d3e 582b 9a39 cfdc d1bc
00000090: 6f40 f3bc ea45 b73d bc19 e4bd 200f 16be
000000a0: b6ac 3e3e 8301 fabd bc88 383e 27f8 3abe
000000b0: f2b6 df3d a515 5e3d 5053 153e 9b56 383c
000000c0: 316e 2ebd 3cad 5bbe 12aa 93bc 6ccf f2bd
000000d0: 0598 5f3e 82a3 253e b873 603d 1575 8fbd
000000e0: f713 b9bd a877 7fbd b162 273d 8773 bdbe
000000f0: 845d d53e 156f e13d bc21 28be dd9a 5fbe
00000100: 1166 e03d aed1 babd 4695 673c 76d6 d2bd
00000110: e625 d23c 3660 04be 8f10 103e 9b0f 163e
00000120: e2a0 583e cb0c 81bd d96f f7bd bab8 583d
00000130: 87d2 d6bd 061b 98bc 5d2b 08be 99a5 f4bd
00000140: 23b2 34bd 9a81 21be 4025 723d 80d8 863b
00000150: 0848 4b3e 4adb edbd fbf4 b43d c6a4 9bbe
00000160: 3fa2 14be 0846 96be cc8e 553e 3d04 5abd
00000170: b403 943d 2f8a 75be 5c1d c3bd 3aaf 2b3e
00000180: 6ca0 103e 3495 e4bc 5cba 7bbe cd55 adbe
00000190: cc61 e53d c067 0e3c 601e 67bd 79f7 06be
000001a0: cf4c 3c3e 82a7 183e 9ec8 2ebd 08cb adbd
000001b0: f94b 4c3e 8a05 1e3e 7e36 dfbc 95e5 dabb
000001c0: 6caa 363e 7c9b 803d 45d0 9dbd 7377 283e
000001d0: e588 91bd f0b4 c1bc 9a55 7f3e bc55 163e
000001e0: a431 abbe 26d5 e93a 01f9 edbd 575a b5bd
000001f0: 4c5f d63e ac0d 833d 94ed b0bd 24d8 a5bd
00000200: 1779 cd3d d1bb 713c 78d5 acbe 8f05 3b3e
00000210: 8ee0 8ebc 8706 a1bd 47c4 1abd b1e9 45bd
00000220: 0c96 08bd 10cb 783d 87b6 8abc cc00 f93d
00000230: f069 8ebe ba57 143e 7598 8a3d 3401 1c3c
00000240: 2e35 0ebe bc4b f4bd 111e a7bc 1a21 0a3d
00000250: f1c2 883d 43d7 5c3c 9b1e f0ba 2c89 4e3d
00000260: 510f 543e 84f8 a03e 1b49 ab3e 1b0e 0ebd
00000270: ac23 22bd 6489 f4bd e9ee 4c3d 65d6 933e
00000280: 07cb a23e d64f 063e db01 a23c 1221 f13d
00000290: 4331 943c 85c5 b13c 3608 78be 6aad 28bc
000002a0: 09a7 713d b5bc bbbd a255 a73a d5d1 993e
000002b0: 3c9c 18be 863e 8fbe b4df b6bd 113c abbd
000002c0: 4487 fdbc 0d1c e03d f554 883d 54b5 cf3c
000002d0: 16ba 49be 5804 86be 333b 26be ac58 6c3e
000002e0: 5646 563e a0c3 ffbd c0d1 9c3d b29e 3bbd
000002f0: 96a1 a73d 69fe 0c3e d6da 7b3d 4fd5 dbbd
00000300: 9ec0 dfbd 70db 50be b56d 1dbe 844e 873c
00000310: 6f5a 71bd a696 eabd c8f7 f9be eeac 4a3e
00000320: acac b13d 8a82 273e 476d 28be 3604 bb3d
00000330: 66b5 313e 0647 40bd 22b9 bbbd 92d2 703d
00000340: 5d92 3fbe 5e18 0a3e 11eb c53d dc0b 2b3d
00000350: 5b97 fa3d 5158 16be f21a 063e c8af ca3c
00000360: 6c25 273e e82c 42be e980 0ebd b55c 2bbd
00000370: a25c e4bd 4c07 3b3d f26e cf3d 940f 1fbe
00000380: 6cf6 b5be 9006 1f3f 8e71 503e c8a9 5bbc
00000390: c8ad 8ebd 074c 763d 9a83 043e ffe1 0abe
000003a0: 4b5c c9bd adfb 06bd 2a92 34be c075 2d3e
000003b0: f8da de3c 4109 a73d bbd8 98bd 3145 0dbe
000003c0: 7cef 283d 4469 2c3d d397 283e cabf 1b3e
000003d0: 18a5 48be d293 233e a2b3 673d 5033 053d
000003e0: 3070 3bbd 9307 723e 743c 6f39 be12 103e
000003f0: c3eb 85be 9f7e fb3b 1bc6 59bc 8ef9 303e
-0.0007494135 -0.26143238 -0.08650453 -0.08204494 0.18788785 0.031955313 0.08508081 0.09157721
-0.1250241 0.072014436 0.22550301 -0.031632386 -0.047755223 -0.10021924 -0.18600534 -0.18174939
0.15808703 0.124071136 -0.010926734 -0.17279372 -0.22128755 0.16676676 0.21586269 0.114154
-0.045801654 -0.21618377 -0.08559805 0.5171612 -0.19632745 0.16649635 0.019317562 0.023700112
0.21785799 0.18509422 0.00029405463 -0.025617985 -0.02969381 0.08948882 -0.11137721 -0.14654207
0.18620571 -0.122073196 0.1802091 -0.18258725 0.10923566 0.05421986 0.14582562 0.011251117
-0.042585555 -0.21452802 -0.018025432 -0.11855969 0.21835335 0.16175655 0.054797858 -0.070047535
-0.09037011 -0.062369972 0.040865604 -0.37002203 0.4167291 0.11007515 -0.16419119 -0.2183642
0.109569676 -0.091220245 0.014134711 -0.102948114 0.025652837 -0.12927327 0.14068817 0.1465439
0.21155122 -0.06301268 -0.1208188 0.052910544 -0.10489374 -0.018567573 -0.13297792 -0.11945648
-0.044115197 -0.15772095 0.059117556 0.0041151643 0.19851696 -0.11614092 0.08835789 -0.3039915
-0.14515017 -0.29350305 0.20855254 -0.0532267 0.07227269 -0.23978494 -0.09527084 0.16766062
0.14123696 -0.027903177 -0.24582809 -0.33854523 0.11200294 0.008691728 -0.056425452 -0.13180341
0.18388675 0.14907649 -0.042671792 -0.08485991 0.19950856 0.154318 -0.027247664 -0.0066802003
0.17838448 0.06279656 -0.0770574 0.16451816 -0.07106189 -0.023645848 0.24934998 0.14681143
-0.3343631 0.0017840012 -0.11619759 -0.088551216 0.4186958 0.06399092 -0.086390644 -0.08097866
0.10032862 0.014754252 -0.33756614 0.18263839 -0.01744106 -0.07862573 -0.03778484 -0.04831857
-0.03334622 0.06074053 -0.016932739 0.12158355 -0.278152 0.1448659 0.0676736 0.009521771
-0.13887474 -0.11928508 -0.020400079 0.033722974 0.06677807 0.013479057 -0.0018319668 0.050423786
0.20708968 0.31439602 0.33454213 -0.03468142 -0.0395848 -0.11940268 0.05003253 0.28874508
0.31795523 0.13116392 0.019776275 0.11773886 0.018089896 0.02170063 -0.24221882 -0.010295251
0.058997188 -0.091668524 0.001276661 0.30042902 -0.14903349 -0.2797739 -0.08929387 -0.08361066
-0.030948289 0.1094285 0.06656829 0.025355019 -0.19699892 -0.2617519 -0.1623352 0.230807
0.20925269 -0.124884844 0.07657194 -0.04580564 0.08185117 0.13768925 0.061487995 -0.10734045
-0.10925411 -0.20396209 -0.15373881 0.016516931 -0.058924135 -0.11454515 -0.48821855 0.1979253
0.08675513 0.1635839 -0.16447936 0.091316625 0.17354354 -0.046942733 -0.09166171 0.058794565
-0.18708177 0.13485858 0.09663976 0.041759357 0.122359 -0.14682128 0.13096216 0.024742022
0.16322869 -0.18962443 -0.034790907 -0.04183646 -0.11150481 0.045661256 0.10128583 -0.15533286
-0.35539567 0.6211939 0.20355818 -0.013407178 -0.0696674 0.0601311 0.12940827 -0.13562773
-0.098320566 -0.03295486 -0.17633882 0.1693945 0.027204022 0.08156062 -0.07463213 -0.13795926
0.041244015 0.042092577 0.16464166 0.1520988 -0.19594228 0.15974358 0.056567796 0.03251964
-0.045761287 0.23635702 0.00022815337 0.1406965 -0.26156434 0.0076750065 -0.013291861 0.17282698

input_projection.0.bias f4 [256]
00000000: 2931 0bbe 0d1b 2ebe 3913 1d3d cb59 143e
00000010: 319f f43d 4c76 123e bbc9 a7bd 392c 9bbd
00000020: 75d8 eabd 750a 463d afce 0a3e a65e 303d
00000030: d468 cdbd d2d0 6e3d 3496 953d 34a4 9d3e
00000040: 6821 493e 57c0 71bd e737 713e 36c8 11bd
00000050: ce7d babc e1c2 c93d 035b f03d 5f07 c93c
00000060: cc39 75bd fce5 d5bb 84a6 60be 2ae4 4f3d
00000070: 8c47 65bb 6964 a63e 4915 19be 83a1 55bd
00000080: def4 523d bf62 0b3e 6a58 9fbc f4f7 963c
00000090: 6568 293d e705 993c 7afe 1ebd 8a7f 15be
000000a0: 09a2 313d 6c02 0ebe 0e5e 57bd 2992 053e
000000b0: ac2d ed3c 7440 283e 8223 a23d 5a3b b63d
000000c0: 9ef7 513c b013 1cbb 90e3 b03c 572f df3d
000000d0: 55a0 9e3d 68bf 23bc 8064 51bc 3d1e 4339
000000e0: e89d 9c3d d0d7 85bd 3d4f 08be e323 84be
000000f0: bcfc 963d e151 5b3e 65f3 2e3d 398a e73d
00000100: 506d e63e df5c 553e 3355 05bd e1df 613e
00000110: 45b5 1abe 5c6f a43d a292 af3d 2352 e53c
00000120: 1edf a93c 22af 8aba 66f6 f1bb dff4 bfbd
00000130: 3f3c 593e ea91 34bd 2d71 6ebc 1598 3c3e
00000140: da3d 83bd 0f6a 003e 118f 5a3e 7833 4cbd
00000150: d920 343e d58a 073e 825b 8e3d fede 0a3e
00000160: 50dc e33d 61dd 8abd 2ec7 29be 491c c8bb
00000170: 19b5 893d 6852 ffbd 53e8 753e 408a 853e
00000180: 664b ae3d c51e 64be ae04 1cbe 8ec6 f1bc
00000190: e6bf f43d d3f2 07be bd87 a83c 54c3 13be
000001a0: f7f8 a13e 503a 513e 77c2 283b e022 7e3e
000001b0: 3964 a2bd 9567 8f3e 1610 cabd d28a 5d3d
000001c0: 648e adbc 7ccb 36be 59bb 13b9 2c0c 83be
000001d0: e1ba d93b d400 783e 7f7e 683d 7c6b 523e
000001e0: 6d82 e2bd 3cf9 5dbe 10be 76bd a178 39bd
000001f0: 781b 0dbe 080a 983d 8c75 98bd 3664 683e
00000200: a68b ab3d 0d63 0b3d 2d8e c63c 19f2 053e
00000210: 7887 653e f54c e63d 0b64 29bd e008 5dbb
00000220: a692 823e 220c 90be 1e05 973d 6a30 763c
00000230: f351 d83d d0ef 133e db14 ec3d 0524 b83c
00000240: 9605 e1bc 9328 193d 656e 233e 8799 25be
00000250: e1d3 c9bd bf3c 93bc 8a05 d13d ad8e 72be
00000260: 949b b8bd 2f70 2f3d 3cd3 793e accc 9e3c
00000270: 42dc 4fbe 90ee 36be d259 443b 6c4a 0b3d
00000280: 78b3 01bd 823f 3ebd 5786 0abe 165d ab3d
00000290: c03a 063e 3a2a e93c d31a 313e 877c 18be
000002a0: dcfe acbd cac9 e83d dc97 3ebc cf46 523e
000002b0: 85f2 483e 96d9 f93d bad9 8d3d c635 1ebe
000002c0: d00d ebbd 73e0 89bc bab2 5b3e c5f5 eb3d
000002d0: 9955 e2bc 6e2f 08bd b781 123d 89ff 9bbd
000002e0: 3aef 9c3d 6a0c df3d e1cb 583e 38c0 d03d
000002f0: 12c0 093e 140a eb3c c50d eb3c 6029 003e
00000300: a084 243d 09a7 af3e f902 f93d 18a2 b8bd
00000310: 3297 35bd 17a6 273e 1276 363d cbc1 03bd
00000320: 0a20 c9bd b5ee 6ebc d064 c0bc ffad b33d
00000330: a1de efbd 1a2a 68be fdb8 e23e aa34 593d
00000340: 361b b73c 8cfb 11be 814c 263e e5f3 cebd
00000350: 52da c3bc c753 0e3e 4b1b 753d 984c f4bc
00000360: 1fdc ce3d e1b7 8abc 7f61 483d 0aac 16bd
00000370: b05a 34be 07e7 f53d f58c 4bbb 5878 e13e
00000380: 871e b23c de26 db3c 7bd0 783e 8e0d 7cbe
00000390: c652 f3bd 1c4f 923d 232c 55bd 162c 32be
000003a0: d305 6a3d 0260 e03b f75c d93d c6d4 4c3e
000003b0: adf3 adbc 8547 76bd 6d41 4d3e 2ed8 3a3d
000003c0: 5889 543d ee2f 77bd d59b 97be 84c1 533d
000003d0: b5a1 6e3e b758 233e fc13 283e 8cd6 283e
000003e0: bd75 7f3e 2145 693d d434 673e 04d9 85bd
000003f0: f589 babd 3e3a e03c 95c1 ecbd 2d19 2bb8
-0.13592972 -0.17002507 0.03834841 0.14487378 0.11944426 0.14302939 -0.08192774 -0.07576794
-0.11467067 0.048349816 0.13555406 0.043059014 -0.1002976 0.058304615 0.073040396 0.3078934
0.1964165 -0.05902132 0.23556481 -0.035591327 -0.022765066 0.09851623 0.11736109 0.024539648
-0.059869573 -0.0065276604 -0.2193852 0.050754704 -0.0034985272 0.32498482 -0.14949526 -0.052155983
0.051503055 0.13611887 -0.019451339 0.01842878 0.041359324 0.018679572 -0.038816907 -0.14599434
0.04336742 -0.13868111 -0.052579932 0.13044037 0.028952442 0.16430837 0.07916929 0.08898039
0.012815384 -0.0023815446 0.021592885 0.10897701 0.07745425 -0.009994365 -0.012780309 0.00018607914
0.07647306 -0.065353036 -0.13311477 -0.2580863 0.07372424 0.21417953 0.042712588 0.11305661
0.45005274 0.20836209 -0.032551955 0.2205806 -0.15108211 0.080290526 0.0857289 0.027993267
0.020736273 -0.0010580758 -0.0073841093 -0.09372877 0.21214388 -0.044084467 -0.01455335 0.1841739
-0.064082816 0.12540458 0.21343638 -0.049853772 0.17590655 0.13236554 0.069510475 0.13561627
0.11126006 -0.06780506 -0.16579887 -0.0061068875 0.06723995 -0.124668896 0.24014406 0.2608204
0.08510475 -0.22277363 -0.1523616 -0.029513624 0.11950664 -0.13276224 0.020572538 -0.1442998
0.31635258 0.204324 0.0025750676 0.24817991 -0.07929272 0.28008714 -0.098663494 0.054087467
-0.021186061 -0.1785106 -0.00014088805 -0.25595224 0.006644592 0.24219066 0.05676126 0.20548815
-0.11060033 -0.21677107 -0.06023985 -0.045281056 -0.1378001 0.07423788 -0.07444295 0.22694477
0.08376245 0.03403001 0.024237717 0.13080634 0.22414958 0.11245147 -0.041355174 -0.0033727214
0.2550251 -0.28134257 0.07374023 0.015026191 0.105625056 0.1444695 0.11527415 0.022478113
-0.027468484 0.03739221 0.15960081 -0.16171847 -0.09854866 -0.017973302 0.102061346 -0.23687239
-0.09014049 0.042831596 0.24396986 0.019384705 -0.20298865 -0.17864442 0.0029960764 0.03400652
-0.031665295 -0.046447285 -0.13527809 0.08367364 0.13108349 0.028462518 0.17295389 -0.14891253
-0.08447048 0.11366613 -0.011632886 0.20534824 0.19623764 0.12199704 0.06926294 -0.154502
-0.11477244 -0.016830659 0.21454898 0.11521486 -0.027628707 -0.033248357 0.035768237 -0.07617099
0.07662816 0.1089104 0.21171524 0.10192913 0.13452175 0.028691329 0.02869309 0.12515783
0.040165544 0.34307125 0.1215877 -0.09015292 -0.044333644 0.16371952 0.044546194 -0.032167237
-0.09820564 -0.014583279 -0.023485571 0.087734215 -0.11712385 -0.2267231 0.4428176 0.05302874
0.022351842 -0.14256114 0.16240121 -0.10105113 -0.023907814 0.13899146 0.05984048 -0.029821679
0.101005785 -0.016933383 0.048921105 -0.036785163 -0.1761272 0.120069556 -0.0031059359 0.44037127
0.021743072 0.026751932 0.24298279 -0.24614546 -0.11881022 0.07143995 -0.052044045 -0.1739963
0.05713446 0.0068473825 0.10613435 0.20003042 -0.021234358 -0.0601268 0.20044489 0.04561632
0.051888794 -0.060348444 -0.29611078 0.051698223 0.23303874 0.15951811 0.16413873 0.16488093
0.24947257 0.056950692 0.22578746 -0.06535533 -0.091083445 0.027371522 -0.1156036 -4.0793024e-05

input_projection.1.weight f4 [256]
00000000: 90d5 9e3f a0e9 953f 49ab 863f f79b 823f
00000010: 7378 413f 3321 813f b56e 9e3f 22ee 8f3f
00000020: 7934 973f ec70 9a3f 2eb6 563f 58ad 5e3f
00000030: e3fb 803f b6c9 593f e7b6 883f a50c 553f
00000040: 5694 733f 8c20 9a3f c3a0 553f 0179 6c3f
00000050: a61e 883f dfa2 6b3f a911 723f cda2 8e3f
00000060: 20b2 843f 711c 8e3f 3941 9b3f ba82 8c3f
00000070: 732f 713f 5f61 6a3f eacd 933f ce46 7c3f
00000080: 57b7 913f 3f42 863f 01b0 873f 2936 823f
00000090: 9086 7a3f 97c3 883f 6802 883f 0259 a13f
000000a0: ae08 843f 0f86 9d3f 4d04 913f 4593 743f
000000b0: 67b5 9a3f 4a54 8c3f 674b 663f a1c7 6b3f
000000c0: 421c 8d3f b2cd 843f a38f 7a3f 63ea 5b3f
000000d0: 74a5 883f cb42 8f3f ffc3 8b3f ca78 8d3f
000000e0: 81a4 863f bd40 9f3f 2d93 8d3f 48f4 923f
000000f0: a57b 843f 9087 3d3f df91 9a3f 956a 7a3f
00000100: 65fb 453f c152 823f 7223 8d3f af24 653f
00000110: 4416 a33f 0a52 6b3f 3670 753f ddee 863f
00000120: 5806 5d3f 6e0a 873f 019a 733f 811f 9a3f
00000130: 7367 5d3f 68c9 663f f82a 873f ad87 6e3f
00000140: 43a9 833f 0553 933f d273 593f 3261 943f
00000150: 8132 703f 957b 503f 61d5 7c3f d80a 5d3f
00000160: fb9f 6f3f 591a 883f 9c2e ae3f cfbd 863f
00000170: ff84 8a3f 96ba 823f a540 713f c294 613f
00000180: af1d 853f 956d bf3f 5c5d 9e3f 428a 833f
00000190: b0c5 5e3f 1fa8 943f 7c08 643f 57f0 9a3f
000001a0: 3bbd 443f 0f5c 553f 8e6a 8c3f 948b 673f
000001b0: a517 8e3f a2c7 5f3f 7758 923f c9d9 843f
000001c0: ba4b 873f ceb3 963f 9eb4 903f bb2e 9e3f
000001d0: 4424 6a3f 612b 793f dc0a 5f3f 7187 633f
000001e0: cfab 9c3f 30ca b13f eb77 7c3f 4960 923f
000001f0: 028c a23f 7fdb 7f3f 0442 813f 2ab2 563f
00000200: 8a1c 943f a9a7 9d3f 3807 743f b550 763f
00000210: 864e 4b3f 0db7 833f 46b9 983f b22e 9b3f
00000220: 8595 453f 1aa8 b83f fc5f 703f 4b0c 9a3f
00000230: 1917 863f 2185 743f 4ca3 873f dab7 a53f
00000240: 3c14 6c3f 2427 9e3f fb85 813f bb03 a53f
00000250: b4e4 a33f 59fa 893f dc4e 633f 897a a83f
00000260: 71c9 963f 3b3e 803f 01e7 573f 0cdb 853f
00000270: 172d a33f 6336 8d3f 6085 6c3f d1a8 843f
00000280: 801a 7f3f dea4 943f 2baa a73f 4227 803f
00000290: f88a 8b3f 618d 813f 4504 743f c65c 873f
000002a0: b98d 8d3f cb7f 433f ab1a 8e3f 6e79 5d3f
000002b0: 196b 673f c5e9 863f 6998 963f 8682 913f
000002c0: 00ef ba3f 7d2a 913f db57 7b3f 058d 843f
000002d0: 1f10 8b3f 74d7 9c3f 0566 803f a44a a13f
000002e0: 5595 963f dd79 6b3f f26c 693f 18f9 903f
000002f0: 281d 8e3f fe47 9b3f 620a 7e3f 09a2 853f
00000300: aea8 9d3f 977e 383f 701e 873f 6d14 8a3f
00000310: 07fe 903f b538 863f 75dd 763f 680a 963f
00000320: 9e06 803f 5b79 833f c03d 733f c31d 693f
00000330: 1260 9a3f dc1d 9a3f aeff 293f 0bcc 6b3f
00000340: abbb 873f 8bc9 a53f c284 5b3f df9e 9e3f
00000350: 8d56 863f 0147 703f 18de 8e3f 1762 8b3f
00000360: 9051 843f d13b 8c3f 9338 953f 6aa5 923f
00000370: 34a9 be3f aa1a 7d3f 5614 923f 6e03 2a3f
00000380: 37d5 993f 870e 6d3f aff2 603f 6406 ad3f
00000390: 84f2 923f 3e84 8c3f 0462 713f e1f2 ad3f
000003a0: ca54 8a3f db6a 913f a19e 933f 0e06 713f
000003b0: ea4e 9c3f e787 843f a427 8f3f 5f8c 853f
000003c0: 75d9 903f 7317 833f e6e5 a03f bb99 8d3f
000003d0: 20e5 443f 7bc1 673f abfa 5a3f 35c5 7f3f
000003e0: 72eb 533f bde8 8f3f b3e6 503f 8ffb a33f
000003f0: 8feb 963f 446d 743f e043 8b3f 3e36 8f3f
1.2408924 1.1711922 1.0521022 1.0203847 0.75574416 1.0088257 1.2377535 1.1244547
1.1812888 1.2065711 0.83871734 0.8698325 1.007687 0.8507341 1.0680817 0.8322242
0.9514822 1.2041183 0.8344843 0.9237214 1.0634353 0.92045397 0.945582 1.1143433
1.036686 1.110243 1.2129279 1.0977395 0.94213027 0.91554826 1.1547215 0.9854554
1.1384076 1.0488967 1.0600587 1.0172778 0.97861576 1.0684689 1.0625734 1.2605288
1.0315149 1.2306536 1.1329437 0.95537215 1.208661 1.0963223 0.89958805 0.92101485
1.1024249 1.0375273 0.9787542 0.8590452 1.0675492 1.1192259 1.0919188 1.1052487
1.0518953 1.2441632 1.106054 1.1480799 1.0350233 0.74034977 1.2075766 0.9781888
0.7733672 1.0181504 1.1026442 0.895091 1.274117 0.91922057 0.95874345 1.0541645
0.86337805 1.0550058 0.95156866 1.2040864 0.86485976 0.9015107 1.0559988 0.93175775
1.028603 1.150971 0.8494235 1.1592162 0.9382706 0.8143857 0.9876309 0.8634467
0.93603486 1.0633041 1.3607974 1.0526675 1.0821837 1.0213192 0.94239265 0.8811761
1.0399684 1.4955317 1.2372241 1.0276568 0.870204 1.1613806 0.89075446 1.2104596
0.7685124 0.83343595 1.0970018 0.90447354 1.1100966 0.8741399 1.1433247 1.0378963
1.0569985 1.1773622 1.130512 1.2358011 0.91461587 0.97331816 0.87125945 0.8887854
1.2239932 1.3889828 0.9862048 1.1435634 1.2698977 0.999443 1.0098271 0.83865607
1.157121 1.2316791 0.95323515 0.962169 0.7941669 1.0290238 1.1931541 1.2123625
0.77181274 1.44263 0.9389646 1.2035002 1.0475799 0.9551564 1.0596709 1.2946732
0.92218375 1.2355695 1.0119013 1.2891763 1.280417 1.0779525 0.88792205 1.3162395
1.1780225 1.0018991 0.8433686 1.0457473 1.2748135 1.1032223 0.92391014 1.0364019
0.9964981 1.1612813 1.3098806 1.001198 1.0901785 1.012127 0.95319015 1.0575187
1.1058875 0.7636687 1.1101888 0.8651341 0.90397793 1.0540091 1.1765262 1.1367958
1.4604187 1.1341091 0.9818093 1.0355536 1.0864295 1.2253251 1.0031134 1.2600904
1.1764323 0.91982824 0.9118186 1.1326017 1.1102648 1.2131345 0.9923459 1.0440074
1.2317102 0.7206816 1.0556164 1.0787483 1.1327523 1.0486056 0.96431667 1.1721926
1.000202 1.027141 0.950161 0.9106104 1.2060568 1.2040362 0.6640576 0.9210822
1.0604147 1.2952131 0.8574945 1.2392234 1.0495163 0.93858343 1.1161528 1.088931
1.0337391 1.0955755 1.165789 1.145673 1.4895387 0.9886881 1.1412456 0.66411483
1.2018193 0.9260029 0.87870306 1.3517575 1.148026 1.0977857 0.94290185 1.3589746
1.0807126 1.1360735 1.1532785 0.94149864 1.2211583 1.0353974 1.1183972 1.0433463
1.1316363 1.0241531 1.257016 1.106254 0.76912117 0.905296 0.8553874 0.9991029
0.82781136 1.1242901 0.8160202 1.2811145 1.1790637 0.95479226 1.0880089 1.1188428

input_projection.1.bias f4 [256]
00000000: 7234 07bf 1883 f9be 8912 1fbf 6c16 2cbf
00000010: b081 e5be f6d0 2dbf 04c7 02bf d08d 1bbf
00000020: 8c4b eabe 921d 27bf 90db f6be be2b 1dbf
00000030: 5e78 0dbf 6b69 10bf 2d36 0bbf c235 29bf
00000040: 9347 02bf e425 26bf 880f 06bf 52b2 16bf
00000050: 7ba2 23bf fd25 0fbf 9b02 36bf 063b 23bf
00000060: 05f0 d1be 0f3e 05bf 4eb8 e6be 9530 d7be
00000070: 8736 18bf e4d2 18bf 9fd1 3fbf 2ab3 23bf
00000080: bdab e6be cae5 f0be 9a93 26bf ab04 0bbf
00000090: d7bd 25bf 903c 03bf 4cad 1dbf 3679 35bf
000000a0: 24fd 04bf a256 10bf 16ad 39bf 1dbd 16bf
000000b0: 82bf fbbe db0c 1dbf 6d8a 1abf 665d 12bf
000000c0: 1b2b f8be f6fe 00bf bd38 22bf cfbe 0abf
000000d0: ba4e 0fbf c294 23bf baae 0abf 6c36 2cbf
000000e0: 918b 1ebf 26d6 0abf 4fd0 15bf 1ffb 17bf
000000f0: 3ed6 dcbe 8944 22bf 039e 04bf e65d 28bf
00000100: 6367 15bf 8194 17bf 00fd 2bbf e5ad 16bf
00000110: fcc4 07bf 6127 47bf eae3 21bf 30c4 41bf
00000120: 0420 27bf 0f7f 42bf 4da4 1dbf f8ed 09bf
00000130: b9c1 05bf 22bc 12bf 6314 1fbf 45db 0abf
00000140: fdaa 30bf 06ad 26bf d379 29bf c5fe ecbe
00000150: 088e 34bf 4411 21bf 548c 0dbf 1cfa 1cbf
00000160: 8608 09bf b038 39bf b8e8 f3be b525 13bf
00000170: 3248 0bbf 861b 48bf 4b11 35bf 17bd 2dbf
00000180: 0d0a d7be 9f2e 0cbf 94bc 28bf 64be 21bf
00000190: c5f7 17bf 9f02 22bf f890 26bf cc48 05bf
000001a0: 3ee0 07bf 3517 15bf cfc3 24bf 1451 2abf
000001b0: ea1f 20bf 41ae 16bf f3da 00bf 8ba5 31bf
000001c0: 58cd 09bf 5192 21bf f2c5 1fbf b9f4 30bf
000001d0: 1ae0 21bf 922b 15bf a4a1 02bf db87 02bf
000001e0: 3502 15bf 863e 33bf 7707 03bf 6561 febe
000001f0: 575a 18bf 9f7c 1abf 468d 08bf bde6 2ebf
00000200: ee69 13bf 3a3f 3cbf c5a8 05bf 99a5 23bf
00000210: 74e0 1dbf 92f2 25bf 11b7 11bf e528 ffbe
00000220: cb8a 2dbf 04fa 22bf ecaa 0bbf 43aa 03bf
00000230: 5662 17bf 0054 14bf 43a3 23bf 7123 1ebf
00000240: 1222 3abf ee0c 13bf 02dc 42bf b287 1cbf
00000250: a9d9 03bf 18f1 1dbf dc3e 19bf b8d6 1fbf
00000260: 2291 2fbf d3ad 3abf 2442 27bf 4562 28bf
00000270: 5d94 10bf f80e 17bf 2ded e0be 81a9 13bf
00000280: ad58 14bf 5d1b 08bf 062a 29bf 0dc9 4cbf
00000290: 962b 24bf 1047 1fbf 6e4a 24bf ba4e fabe
000002a0: d383 28bf 37f6 3dbf c050 09bf 004c 0fbf
000002b0: f233 08bf 85d4 2dbf d28a 35bf d273 03bf
000002c0: 1917 d0be 52b3 05bf 3dfb 3dbf 8ce1 c8be
000002d0: 93b0 28bf da8d 21bf 2ad1 20bf 8d79 2ebf
000002e0: 2d4a 0dbf 0042 2ebf 085e 06bf c4a0 02bf
000002f0: 41dc 26bf cbfd 12bf 12fa 14bf 9a1b 16bf
00000300: fe86 16bf 3d72 febe d026 31bf 36a3 2dbf
00000310: ddf4 3bbf 8fc9 05bf 44d8 2dbf 5a97 11bf
00000320: e7cd 09bf 00f8 44bf 42d7 17bf b6d4 d3be
00000330: fcf5 38bf 72ae 28bf 7cfa d7be 6dee ecbe
00000340: 5db9 03bf 4faa 36bf 7a84 27bf 45f0 17bf
00000350: bb0b 0ebf 78f5 0ebf 65a6 29bf 3a5d f5be
00000360: 6407 45bf f3d3 32bf 3d43 20bf bd04 06bf
00000370: b8a0 28bf e133 4cbf 76c0 18bf b716 08bf
00000380: f28d 43bf fed7 47bf 8a85 1fbf 4cab e4be
00000390: ce67 2dbf 37cc 27bf aaa8 16bf 0788 15bf
000003a0: 4317 21bf 03fe 0cbf 174a dbbe 5aee 0dbf
000003b0: 716b 25bf 62bb 34bf 5166 1bbf 39ac 3ebf
000003c0: 64e5 29bf 25c7 2abf fa67 27bf ce24 1abf
000003d0: 0714 1bbf 92e7 28bf 7ccd 07bf 2085 2ebf
000003e0: 70a3 20bf ac46 00bf a907 16bf be40 edbe
000003f0: 7e47 1abf cba2 e5be 2d1e 0ebf fcc5 23bf
-0.528144 -0.4873283 -0.6213766 -0.67221713 -0.44825506 -0.67896974 -0.51084924 -0.60763264
-0.45760763 -0.65279496 -0.48214388 -0.6139487 -0.5526179 -0.56410855 -0.5437954 -0.6609765
-0.50890464 -0.64901567 -0.5236745 -0.58865845 -0.639198 -0.5591734 -0.71097726 -0.6376194
-0.41003433 -0.5204782 -0.45062488 -0.42029253 -0.594582 -0.59696794 -0.7492923 -0.6394526
-0.450529 -0.47050315 -0.6506897 -0.54304 -0.647428 -0.51264286 -0.61592555 -0.7088808
-0.5194876 -0.5638219 -0.72529733 -0.58882314 -0.49169546 -0.6134774 -0.6036747 -0.57173765
-0.48470387 -0.5038904 -0.63367826 -0.541974 -0.559795 -0.6389886 -0.5417286 -0.6727054
-0.6193171 -0.54233015 -0.5852098 -0.59367555 -0.43132204 -0.63385826 -0.51803607 -0.6576828
-0.5836088 -0.59210974 -0.6718292 -0.5885909 -0.5303495 -0.7779446 -0.63238394 -0.75689983
-0.65283227 -0.75975126 -0.6157883 -0.53878736 -0.5224872 -0.5731832 -0.6214048 -0.5424083
-0.6901091 -0.6510776 -0.66201514 -0.46288124 -0.7052922 -0.6291697 -0.5529225 -0.61319137
-0.5352863 -0.72352123 -0.47638488 -0.5747941 -0.54407036 -0.78167 -0.7072951 -0.67866653
-0.41999856 -0.5475864 -0.6591275 -0.6318114 -0.5936244 -0.6328525 -0.65064955 -0.52064204
-0.5307654 -0.58238536 -0.6436128 -0.66529965 -0.62548697 -0.5885964 -0.5033409 -0.69393224
-0.53828955 -0.63113886 -0.62411416 -0.6912342 -0.63232577 -0.5826961 -0.51027894 -0.5098855
-0.5820649 -0.7001728 -0.51183265 -0.4968368 -0.5951285 -0.60346407 -0.53340566 -0.6832083
-0.5758351 -0.73533976 -0.52210647 -0.63924557 -0.61670613 -0.6482326 -0.5691996 -0.49835888
-0.67789906 -0.63662744 -0.5455768 -0.51431674 -0.59134424 -0.57940674 -0.6392099 -0.6177283
-0.7270824 -0.57441604 -0.76116955 -0.61144555 -0.51504 -0.61696005 -0.5986154 -0.6243701
-0.6858083 -0.72921485 -0.653353 -0.6577495 -0.56476384 -0.59007215 -0.4393095 -0.5768052
-0.5794781 -0.53166753 -0.6607975 -0.7999428 -0.64129007 -0.6221781 -0.6417607 -0.4888819
-0.6582615 -0.7420382 -0.5363884 -0.5597534 -0.5320426 -0.67902404 -0.7091495 -0.513486
-0.40642622 -0.52226746 -0.74211484 -0.3923458 -0.6589443 -0.63107073 -0.6281916 -0.6815422
-0.5519131 -0.6806946 -0.5248723 -0.5102656 -0.6517983 -0.5741851 -0.58194077 -0.58635867
-0.5879973 -0.49696532 -0.6919985 -0.67827165 -0.73420507 -0.5226068 -0.6790812 -0.5687157
-0.5382981 -0.7694092 -0.5931283 -0.41373223 -0.7225034 -0.6589118 -0.42183292 -0.46275654
-0.51454717 -0.7135362 -0.6543652 -0.59351 -0.5548665 -0.55843306 -0.6626952 -0.4792269
-0.769644 -0.6985466 -0.626026 -0.5235098 -0.6587024 -0.7976666 -0.5966867 -0.5315966
-0.76388466 -0.7806395 -0.6231314 -0.4466194 -0.6773652 -0.6554598 -0.5885111 -0.58410686
-0.6292612 -0.5507509 -0.42829964 -0.5544182 -0.6461707 -0.70598423 -0.60703 -0.7448154
-0.6636565 -0.6671012 -0.6539303 -0.6021241 -0.60577434 -0.6597835 -0.5304792 -0.6817188
-0.62749386 -0.50107837 -0.5860544 -0.46338457 -0.6026534 -0.44850764 -0.55514795 -0.63973975

layers.0.0.weight f4 [128, 256]
00000000: 7a6b 8b3d 8832 cb3b 0317 973e f0c5 fb3c
00000010: b9ba d3bb 8992 0ebc e979 27be 502a 2ebd
00000020: 0793 ad3d 3b4b 113e 24d9 89bd 2419 41bd
00000030: 7228 e9bd a0e7 433e f2ed a5bd 3718 99be
00000040: ab41 07be 02e0 103e aeaa 41be 14cf 333e
00000050: e276 f9b8 7f1f 1e3d 46b5 263e bc5f a33d
00000060: f8c5 68bd 1142 3dbe 72e3 bb3d 4f7b e0be
00000070: 5525 f6bd 6830 aa3d 4ad0 96be 7ce6 d63b
00000080: 5627 0ebe 7caf 6d3d ee34 a4be 7c1d ebbc
00000090: e754 f63d a65d 37be c3ca a6bd c6ce 963e
000000a0: 2df6 35bd ae88 2a3d ef2a 88be d3ef fcbd
000000b0: 5cdf a5bd cb11 8fbe 9fc0 ebbc 45a8 73bc
000000c0: f605 3abc f4d6 c6bc 1071 91be e359 78bc
000000d0: 59cb 32be 83ae cd3d cb49 d93d 52e9 15be
000000e0: 7056 6abb 97f6 a2bc f2de 3dbe 0110 ae3e
000000f0: 37f1 8e3c 7285 48be 46d9 773a 6eca be3d
00000100: 628e ac3c f121 f1bd 45e5 00bc 1571 2bbe
00000110: 77cf ce3d 8254 a13d d278 3c3e d7f6 b33c
00000120: e4f4 353d c240 90bd f95b 75bd 282a 72be
00000130: 16ad 9fbe 6fb0 0dbe 8aa5 fb3d d06f c3bd
00000140: 92bb aebe 210c a4be 0151 11ba de36 42bd
00000150: 151e 8f3b e437 31be 4d53 533d bea4 1dbd
00000160: 978f cb3c b62d e9b9 8a4e b03c 0f48 fe3b
00000170: a566 e33d f72e 503e defa 4bbd 9423 24be
00000180: 76f8 34bd 232f 9b3d 52ad 1fbf 7a0a 603e
00000190: 7b43 4c3d 6b27 c5bd c1ef edbd ba57 fc3c
000001a0: a571 81bd 2dd1 a1bd 9cbe f1bd d66b 173d
000001b0: 1343 0fbd 81c6 223e 6941 0e3e 16ca 973e
000001c0: 964b 2c3e ede4 c03d f7d2 f43d e54d 15be
000001d0: efd8 3cbe 4dd4 83be 7596 c43d 75ac a3bd
000001e0: 883b 543e 52ee 9c3e eda5 fd3d 17fe 8f3d
000001f0: f88a 403e 4d81 e4bc 2b1d 14be 53b7 aabd
00000200: bee3 a13d dfe4 bebe 10fc 7e3e 9c57 dd3d
00000210: 951e 3fbd b99f efbc be51 753e eb47 2a3d
00000220: f7a9 94bc ecc8 833e 540a b0bd f3d6 19be
00000230: 85f9 9c3d a27a 143e 70c8 633e a7db 75bb
00000240: e961 313e 6a23 2a3e 8d03 5cbe c466 e33d
00000250: 1405 823e 9532 8cbe 97a0 57bd b39a 61be
00000260: 585f 79bd 1510 4a3e 9c51 b8bd 1547 84be
00000270: 983a 733e 4ee4 2e3e fb47 9d3d 8d1b abbc
00000280: 04eb cb3d 54a1 1ebc 567c e7bd fb1a a4bd
00000290: 3e71 f43d 9a22 6b3d 24d8 f6bd 1aaf 08be
000002a0: 6554 583d 9903 423e 7b7b 3a3d b07b 87be
000002b0: 2ea9 b3bd 7153 8b3d 4f99 0fbe 6380 97bc
000002c0: f95b b03d f0a9 703e 351b fa3a 438f b0bb
000002d0: 0d00 c33d 1eaf dfbd 5476 033e 83c8 8e3d
000002e0: 9e9c c6bd 8be3 d2bc bba6 303e 8884 c5bd
000002f0: a6ce 2f3d cd3f 123e b914 abbe 43b1 98bd
00000300: 6156 54be c44b 1d3e 5265 9fbe 5c0c ac3e
00000310: a38e a13e cd4b 023e f925 71bd 4a9b 373e
00000320: 6cba 48bc 206e 04be 058b a9bd bcd6 b43d
00000330: c575 35bd 49bf ef3d f872 10be 7ad5 943d
00000340: f00b eb3d 2afb 0c3e ace8 163e 8985 89bd
00000350: ecfe a4bd d7e3 ae3d f513 f73c 50d5 0d3d
00000360: da6d 343e 7568 4dbd ee5a 793e 9849 4d3d
00000370: 9a99 5f3e 1834 8ebd d0da d63d 7e5f c3bd
00000380: d5c2 ecbc 30cf 2a3e c420 2c3e 88b1 853e
00000390: 17f1 9f3d 41b4 783d 5167 d13d 8c86 043d
000003a0: c003 653e 42d2 a4bd f017 f9bc 5c63 a1bc
000003b0: a7c2 5ebe 26af d43d 56e2 a73e ad7f d83c
000003c0: af19 803e 5e71 0bbe 2259 88be fc5a 193e
000003d0: 225a 003e c6ec 60be 03fb 6abe c043 153e
000003e0: 09e2 a13d e303 8dbd 619c d63d b7eb 2b3e
000003f0: 9cc7 ac3a 9c72 3a3e 6180 943d e079 89bc
0.06807609 0.006201092 0.29509744 0.030734032 -0.006461468 -0.008701929 -0.16355099 -0.04252082
0.08475309 0.14188854 -0.067308694 -0.047143117 -0.113846675 0.19131327 -0.08102025 -0.29901287
-0.13208644 0.14147952 -0.18912765 0.17559463 -0.00011895389 0.038604256 0.16280088 0.07977244
-0.056829423 -0.18482234 0.09174241 -0.43844077 -0.12018839 0.08310014 -0.29455787 0.0065582376
-0.13882193 0.058028683 -0.32071632 -0.028700583 0.120279126 -0.17906818 -0.081441425 0.2945463
-0.044424225 0.041634254 -0.26595256 -0.1235043 -0.08099243 -0.27943262 -0.028778372 -0.014871662
-0.01135396 -0.02427242 -0.28406572 -0.015158149 -0.17460383 0.10043051 0.10609778 -0.14639786
-0.0035757087 -0.019892974 -0.18542078 0.33996585 0.017449005 -0.19582155 0.00094546785 0.09315954
0.021063987 -0.11774052 -0.007867162 -0.16742356 0.100981645 0.07877447 0.18405464 0.021968288
0.044423 -0.070436016 -0.059902165 -0.23648894 -0.31186742 -0.13836835 0.122874334 -0.09542811
-0.3412748 -0.32040504 -0.00055433816 -0.047415607 0.0043675997 -0.17306477 0.051593114 -0.03848719
0.024848742 -0.0004447528 0.021521825 0.007760055 0.11103562 0.20330416 -0.049799792 -0.16029197
-0.044182263 0.0757735 -0.6237384 0.21878996 0.049869042 -0.09626659 -0.11617995 0.03080355
-0.06320504 -0.07901225 -0.11803934 0.036968075 -0.034976076 0.15896036 0.1389214 0.29646367
0.16825709 0.09418664 0.11954301 -0.14580496 -0.18442129 -0.2574791 0.0959901 -0.07991878
0.20725834 0.30650574 0.123851635 0.07030886 0.18803012 -0.027893687 -0.14464252 -0.083357476
0.079047665 -0.3728399 0.24900842 0.10807726 -0.046660025 -0.029250966 0.23956963 0.041572493
-0.018147452 0.2573923 -0.0859572 -0.15023403 0.076647796 0.14499906 0.2224443 -0.0037514956
0.17322506 0.16615072 -0.2148573 0.11103585 0.253945 -0.2738234 -0.052643385 -0.2203167
-0.060881943 0.19732697 -0.08999941 -0.2583548 0.2375282 0.17079279 0.07679745 -0.02088716
0.09956935 -0.009682018 -0.11303012 -0.080129586 0.11935662 0.057406045 -0.12052944 -0.13348046
0.05281486 0.18946685 0.045527916 -0.26461554 -0.08772503 0.068030246 -0.14023326 -0.018493837
0.086112924 0.23502326 0.0019081595 -0.005388172 0.09521494 -0.10922073 0.12838107 0.06971838
-0.09697841 -0.025743267 0.17251103 -0.09644419 0.042921685 0.1428215 -0.33414248 -0.07455685
-0.20736076 0.15360934 -0.3113199 0.3360318 0.31554136 0.12724228 -0.058874104 0.17930332
-0.012251478 -0.12932634 -0.08278469 0.0883002 -0.044301767 0.117064066 -0.14106357 0.0726728
0.11476886 0.13767686 0.14737195 -0.06714923 -0.08056435 0.08539551 0.030160883 0.03462726
0.1762003 -0.050148446 0.24351093 0.050119013 0.21835938 -0.0694353 0.10490954 -0.09539698
-0.028901497 0.16680598 0.16809374 0.26112008 0.07809656 0.06071878 0.10224784 0.032354876
0.22364712 -0.08047916 -0.030406922 -0.019700699 -0.21753941 0.103849694 0.32789868 0.026428068
0.25019595 -0.13617465 -0.26630503 0.14976114 0.12534383 -0.21965322 -0.22947316 0.14576626
0.07904441 -0.06885507 0.10479046 0.16789137 0.0013182047 0.18207783 0.07251049 -0.016781747

layers.0.0.bias f4 [128]
00000000: 5a96 503c 2cc6 feba bbb6 623c c37c 08be
00000010: b39a e73d b1bf 89be baaa 06be a6e7 553d
00000020: 9aa3 d63e 4c56 36bd 6d9e 973e 7eff d33c
00000030: 4a20 3e3e 1dde 9dbd 9442 223f 57fa d2bd
00000040: 8f59 c53e 7a23 013f 8caf 4dbd fcb8 d03e
00000050: 5b1b 15bd 0e0d be3e 67fc 6f3d 5e83 cd3d
00000060: d2dd fa3b 55be 37be b9ba bf3e 93e3 2ebe
00000070: 979a bb3e a5a2 54be 7c90 00bd 011c 2abd
00000080: ba5c 533e e45a 3abe 88c6 07bd 94b7 38be
00000090: 480c 57be bd2b 643d 5db2 3bbe d1bb 083f
000000a0: 653f c33d 12ca 1dbe b8c6 133f 704a dc3d
000000b0: 5ebd 883e a5fe 2dbd cbe9 c7bd cfb4 ad3e
000000c0: 4eb5 153e 38a1 82be 9e4c debd fdcf 5c3e
000000d0: 1269 083f b902 85bd feb8 15bd 8457 623d
000000e0: 3a7a ee3e a795 11bd 7fed 393e 3594 e93e
000000f0: 9040 8bb9 7822 3e3f fca3 233d 1520 a93d
00000100: f98f e03d 8047 953d f068 523e 4d30 b2bc
00000110: 6cf6 9a3d b314 22be 91de f13d e09a 2e3e
00000120: 4bdc 41be 48fe e73e ad56 b63e 1aa5 1dbd
00000130: 2b99 333e afcf a93d 7d64 fc3d 76f5 e53e
00000140: 136b 093e 98d3 cabd 6820 283e 681d b5bd
00000150: 14be 0e3f bd32 293f 8a8d 41be 9989 413d
00000160: 00c1 f83d 4bc4 f2bd 0965 cd3e 1c1e 41bc
00000170: 3804 363e 8a7b c1bd 2fa1 123e 7942 013d
00000180: 2698 eb3e 8924 e73d 8e65 49be c8af 20be
00000190: 988b 65be b175 0e3f f5e6 f83e 440b 44be
000001a0: 3d5a af3d 8440 03be 0e43 b2bd 49e3 5c3e
000001b0: 129f 293e d00b 6d3e 338b 91bd dd6b 293e
000001c0: 2fd2 e93e 3384 7fbe ef73 5d3e 48d8 1b3d
000001d0: ca45 8abc fac5 493c ca2d 593d b20a 71be
000001e0: effe 15bd 505d 9f3e 6804 1bbe 23dc 203e
000001f0: 33a8 18be 3ee5 65be a2c6 8cbd d3e7 203e
0.012731159 -0.0019437722 0.013837512 -0.13328843 0.113088034 -0.2690406 -0.13151065 0.05222287
0.41921693 -0.044515893 0.29613057 0.025878664 0.18567005 -0.0770838 0.6338284 -0.10301655
0.3854489 0.5044476 -0.050216243 0.40766132 -0.03640304 0.37119335 0.05859032 0.10034822
0.0076558376 -0.179437 0.37447146 -0.17079 0.3664138 -0.20765169 -0.03138779 -0.041530613
0.20640841 -0.18198735 -0.03314832 -0.1803878 -0.21000779 0.055705775 -0.18329759 0.53411585
0.09533576 -0.15409115 0.57725096 0.10756385 0.26706976 -0.042479176 -0.09761389 0.33927009
0.14619943 -0.25513625 -0.10854457 0.21563716 0.53285325 -0.0649466 -0.036553375 0.055259243
0.46577626 -0.03554311 0.18157004 0.45620885 -0.0002656025 0.74271345 0.03995131 0.08258072
0.109649606 0.07289028 0.20547843 -0.021751547 0.075665325 -0.15828209 0.11810029 0.17051268
-0.18931691 0.4531119 0.35613003 -0.03848753 0.17538898 0.082915656 0.12323854 0.44913834
0.13419752 -0.099036396 0.16418612 -0.088434994 0.55758786 0.66093045 -0.18901649 0.047250364
0.12146187 -0.11853846 0.40116146 -0.011786964 0.17775047 -0.09447391 0.14319299 0.031557534
0.46014518 0.112862654 -0.19667646 -0.15692055 -0.22416532 0.5564833 0.48613706 -0.19144922
0.085621335 -0.1281758 -0.08704196 0.21571077 0.16564587 0.23149037 -0.07106628 0.16545053
0.4566817 -0.24952774 0.21626256 0.03804806 -0.016878981 0.012315268 0.053022183 -0.23539236
-0.036620077 0.3112588 -0.151384 0.15708975 -0.14907913 -0.2245073 -0.06873824 0.15713434

layers.0.1.weight f4 [128]
00000000: 5933 913f 74c8 9b3f 3b61 8e3f b898 9b3f
00000010: a6d3 733f 9940 bb3f defb a13f f8c7 853f
00000020: 4cb8 2f3f 5d27 963f 73d5 403f 72f5 973f
00000030: d76f 803f 8862 a03f a4f8 f03e ec9d 9a3f
00000040: eab7 2e3f f71f 1d3f 83cd 923f db9e 3b3f
00000050: 2cdf 983f c3b1 3a3f cf18 923f c223 8d3f
00000060: c85e 993f 740c a53f 52e6 583f e98c 9f3f
00000070: 6326 333f d7b1 9f3f e923 9a3f e19b 983f
00000080: 0c32 583f 818f ab3f c154 8f3f 417d b03f
00000090: e28d a13f 3188 943f 5ea1 a73f 8511 fd3e
000000a0: 987b 9a3f 68a3 a53f c586 023f d6f4 8e3f
000000b0: 61fb 513f 4218 963f 462c a43f 051f 5d3f
000000c0: 6e1c 673f 9b1d aa3f 35cd a13f 45e7 623f
000000d0: dc56 e13e c524 953f 4bbf 9a3f 37f1 8f3f
000000e0: 2e91 143f 87e5 953f c3dc 703f 8eaf 273f
000000f0: a02b 8a3f 8ced 0a3f ce1c 963f 30d1 8f3f
00000100: 8aee 873f afe5 843f af22 813f 080f 993f
00000110: 6cd9 8e3f 72a4 993f c3ef 943f 9e90 8a3f
00000120: ad09 a53f f514 183f 3f49 243f ad2d 883f
00000130: 4310 7a3f ee7d 833f 8144 7d3f 0814 253f
00000140: aeca 8c3f 6d02 a53f 578c 883f 80a4 943f
00000150: 0c1f 053f e096 f23e 83fb a33f 55b7 8a3f
00000160: 38bd 893f af8a 9d3f 3a50 2f3f 66d9 903f
00000170: 0508 803f d62b 963f 4efd 883f 3e7e 8e3f
00000180: 37c7 133f 6a33 843f 5747 a93f 70fc a33f
00000190: 3bef ab3f 75d0 0e3f 75d3 0b3f aa49 a43f
000001a0: cecf 993f 0c26 8c3f 340d 9d3f 0e46 733f
000001b0: 5af8 813f b20a 573f 9636 8b3f 7fba 623f
000001c0: b81a 243f 0dd7 b23f 8b98 783f a0e5 873f
000001d0: f9db 883f cd49 933f 06cc 7e3f ace0 9d3f
000001e0: 39e1 983f 8380 343f e769 9e3f 1a55 833f
000001f0: ce1d a03f 3a50 a43f be84 983f 5fb8 8e3f
1.1343795 1.2170548 1.1123422 1.2155981 0.95244825 1.4629089 1.2654989 1.0451651
0.6864059 1.1730763 0.753257 1.1871779 1.0034131 1.2530069 0.47064698 1.2079444
0.6824938 0.613769 1.1468967 0.7328927 1.1943107 0.7292749 1.1413821 1.1026537
1.198205 1.2894425 0.8472644 1.2464877 0.6998045 1.2476147 1.2042209 1.192257
0.84451365 1.3403169 1.119774 1.3788224 1.2621424 1.1604062 1.309612 0.4942743
1.2068968 1.2940493 0.5098689 1.1168468 0.820242 1.1726153 1.2826011 0.8637546
0.90277755 1.3290285 1.2640749 0.8863414 0.4401158 1.1651846 1.2089628 1.1245488
0.58034027 1.1710671 0.94086856 0.6550225 1.0794563 0.5426872 1.172754 1.1235714
1.0619671 1.0382594 1.008871 1.1957712 1.1160102 1.200331 1.163567 1.0825384
1.2893578 0.5940698 0.64174265 1.0638939 0.97681063 1.0272806 0.98932654 0.6448369
1.0999353 1.2891365 1.0667828 1.1612701 0.520005 0.47380733 1.281113 1.0837198
1.076087 1.2307948 0.6848179 1.1316345 1.0002447 1.1732128 1.0702302 1.1132276
0.5772585 1.032819 1.3224896 1.2811413 1.3432382 0.5578683 0.5461953 1.283498
1.2016542 1.0949111 1.2269654 0.9502877 1.0153916 0.84000695 1.0876033 0.8856582
0.6410327 1.3971878 0.9710776 1.0616951 1.069213 1.1506897 0.99530065 1.233419
1.1943733 0.70508593 1.2376069 1.0260346 1.2509096 1.2836983 1.191551 1.1150016

layers.0.1.bias f4 [128]
00000000: c070 15bf 3185 12bf 4d34 0ebf 7f1f fabe
00000010: a7c9 35bf c07d 03bf 02f5 c6be 8a1d 05bf
00000020: 0859 0cbf 24ce e6be 2506 13bf 5e13 11bf
00000030: 8b6d 0abf e4c7 00bf eb8b dabe c6ab e9be
00000040: 7034 08bf 426e 09bf 9283 efbe 0d5b debe
00000050: fa6b f6be e699 f4be c1bb 13bf eb1d 1bbf
00000060: feaa e7be 050f e0be 5404 bcbe 1a23 f5be
00000070: 77b1 edbe ee8b 11bf cda2 0cbf ae33 08bf
00000080: 6c7a 28bf 3a6f c7be 14ea cebe dd1e 0cbf
00000090: 686a 00bf 7880 f0be 8cda 0fbf 7760 1cbf
000000a0: f210 c9be 1d8d dbbe b3f5 ecbe 18d9 d3be
000000b0: c2cb f3be c355 09bf 2a6e 02bf e527 b8be
000000c0: 87cf dbbe 51fe d8be 54c3 ffbe c573 e9be
000000d0: 5e54 24bf 4200 d4be 0b2c d9be bd06 1cbf
000000e0: 151a eebe 9165 1ebf e165 0dbf 5c31 d5be
000000f0: 2b68 19bf 5555 f7be ba4e fdbe 066b fabe
00000100: 0b1f d2be 983d 25bf a573 0dbf dfd5 d5be
00000110: 2029 eabe 2418 f7be 7b7c ebbe 1b01 e4be
00000120: aaa2 e0be f208 d4be fe82 14bf dce9 d2be
00000130: 7734 eabe ef4f 12bf 755e 10bf b60a 10bf
00000140: bd71 f4be 3ca8 07bf 3f0d f1be 64fe 07bf
00000150: cd68 0bbf 1834 0abf 127e e6be d8a0 08bf
00000160: e17e 10bf 9096 c6be 95f2 bcbe be48 04bf
00000170: b0c1 09bf 0fdb 0dbf a1c8 07bf 297e bdbe
00000180: 260d e5be 0c45 cbbe f05c f3be 4a11 d4be
00000190: 886d f9be dbde 05bf 9e42 dbbe cbe3 0abf
000001a0: e607 08bf 9baf efbe 10f9 02bf 4787 e2be
000001b0: be7d 02bf ca1e d1be 9bf2 17bf d828 0cbf
000001c0: dc76 ebbe c2d0 ddbe 97b0 21bf 38cf dfbe
000001d0: 61e0 08bf e74c 23bf cd8f c5be 141a d2be
000001e0: a3b2 f8be 187a 06bf e38e 0abf 8e0c 08bf
000001f0: 0c0c d3be 6c32 13bf d7fb d9be 1063 07bf
-0.5837517 -0.57234484 -0.55548555 -0.48852155 -0.7101082 -0.51363754 -0.388588 -0.519982
-0.5482335 -0.45079148 -0.5743125 -0.56670177 -0.540734 -0.5030501 -0.42684874 -0.45638865
-0.53205013 -0.53683865 -0.46780068 -0.4342884 -0.48129255 -0.47773665 -0.57708365 -0.60592526
-0.45247644 -0.4376146 -0.36722052 -0.47878343 -0.46424457 -0.5685414 -0.54935914 -0.53203857
-0.658118 -0.38952047 -0.40412962 -0.54734594 -0.50162363 -0.46973014 -0.5619285 -0.61084694
-0.3927074 -0.42881098 -0.46281204 -0.41376567 -0.47616392 -0.53646487 -0.50949347 -0.35967937
-0.42931768 -0.42381528 -0.4995371 -0.45596138 -0.64191234 -0.41406447 -0.42416415 -0.6094778
-0.46504274 -0.6187373 -0.5523358 -0.4163922 -0.5992457 -0.4830729 -0.49474126 -0.48909777
-0.4103931 -0.6454711 -0.55254585 -0.41764733 -0.457345 -0.48260605 -0.4599341 -0.44532093
-0.43874103 -0.41413075 -0.5801238 -0.41194046 -0.45743152 -0.5715322 -0.5639413 -0.56266344
-0.47743025 -0.5299108 -0.47080418 -0.53122544 -0.5445679 -0.5398574 -0.4501806 -0.5337043
-0.564436 -0.38786745 -0.36903825 -0.51673496 -0.5381117 -0.5541238 -0.5304051 -0.37010315
-0.44736594 -0.39701116 -0.47531843 -0.4141944 -0.48716378 -0.52293175 -0.42824262 -0.54253834
-0.5313705 -0.46813664 -0.5116129 -0.44243833 -0.5097312 -0.40843803 -0.5935456 -0.5474982
-0.4598912 -0.43323332 -0.6316008 -0.43712783 -0.53467375 -0.6378922 -0.38586274 -0.4103552
-0.4857379 -0.5253005 -0.5412428 -0.53144157 -0.4122013 -0.5749881 -0.4257495 -0.5288553

layers.1.0.weight f4 [64, 128]
00000000: 6d7d 343e bc53 2dbe 9612 30be dc4f e53c
00000010: 8ccd c8be 30a0 7b3b d392 d3be bf3d 2f3c
00000020: eb79 013e d821 bebe 76eb 38be 7256 ddbc
00000030: 4b2b d83d 210b 883e 3351 2cbc 4543 5d3e
00000040: 0ca2 3cbe fe50 933d eb37 94bd 364b 5cbd
00000050: 6e45 59be 1398 b8bd 007a a5bd 4875 80bc
00000060: 37a1 363e efec 4ebe 4fc1 953b 3baf d7bd
00000070: 9a44 57be 3056 09be 6938 13bd eccf 2abd
00000080: daac 06bf 3082 7a3d 41b3 db3e b026 903d
00000090: b5e1 59be 77e6 8b3d bd7e f9bd a533 c0be
000000a0: 3d7a c9bd b92d 89bd af34 3ebe 48cd 863e
000000b0: f60a 743e e4e4 393e a6e4 a9bd edb2 713d
000000c0: 95b9 a5bd d42d d43d 760a 82be dbba 46be
000000d0: 0361 553c aaef fbbb 3b59 d23c 1908 bd3a
000000e0: e4ad 4b3e 354f 593c 0e8c 063e 6bac 583e
000000f0: 73c9 86bd 5d1f f1bc f068 953d 3c62 fdbc
00000100: c4fa 923c 8a20 44be fc36 d43d 0c04 243e
00000110: 810e 87bb 529a 89bd fbb2 473d 34de 523e
00000120: 34c7 5dbe 9e14 36be 274d 583c 4da5 163e
00000130: d46a 323e 145f 173e 8890 2b3e 868d 1abe
00000140: 9e9a 4fbd d002 88be 0261 9f3e 873b 903d
00000150: b333 c1be 31a8 90be 3135 c5be 1ddc 303e
00000160: 2a7d 4e3e 87fd 03bb ae63 303d ae40 913e
00000170: f2aa d0be a850 adbd 7771 f83d e2bd 71bd
00000180: 3125 d4bc e1fa 8c3e 61da f53b 289b 653e
00000190: bd66 593e 86e9 2e3e 75f1 05be 2da6 8fbe
000001a0: 83cf 663e d815 54be a4e8 7cbd 69e5 1f3d
000001b0: d731 763c fae3 26be 31d9 673e ae92 20bd
000001c0: 7e24 663e 8835 b13d c3c5 0dbe 721b cebe
000001d0: 70c1 fb3d 09a0 94be 4059 a13e 04ad fbbd
000001e0: c4dd 9b3d 0667 4abe a731 10be fcee f8be
000001f0: 3877 ca3d f38a b5bc b0bc 753d 8d02 603d
00000200: 0e76 213e 86e6 5d3e e958 4e3e deb0 acbe
00000210: 9ee6 1e3e c65f b83d bb4b bfbd 3774 34be
00000220: 4c63 023d e368 2fbe 7021 22be 53bc 393e
00000230: c2ef f2bd 0283 99be 50d6 b93d 2408 13bd
00000240: cb40 8b3d 09bc 063b 2182 3bbe 1c03 10bd
00000250: a5dc b63d 0286 973d 62b3 013e 860d a43d
00000260: b1e9 4cbe 4551 71bd 6021 2bbc 88ef c3be
00000270: 7212 3dbd f484 1e3e 4489 1c3e 1822 f23d
00000280: bca0 243d 5b7b 87be d634 6bbd e124 8a3e
00000290: 663c c8bd eb74 0f3e ba9f 0bbe fc77 163e
000002a0: c932 87be 4db2 9e3d 93a0 09be 9b50 203d
000002b0: 9ede 27be 4fc2 94bd 2601 7b3e 2feb 3dbe
000002c0: dc69 bcbd 9f93 253e f5b1 843d b939 dbbc
000002d0: d18a 4e3e 35aa b9be c186 93be c4a4 553d
000002e0: 89f1 9bbd 61ae a8be 78a9 42be 05b0 0bbe
000002f0: 6d41 cfbc 4c20 bbbc 4a66 82be 537c ab3d
00000300: 1ce5 7abe 970a 613d 8c86 c8bd 50cc 653d
00000310: 0b00 a03d fcfd 88be 60d8 e53d cb0d 853d
00000320: 04e1 9dbe 92ed 0d3d 220c 5c3d ed57 7cbe
00000330: eb5b 683c 1b21 a03d 41f3 0e3e d630 15be
00000340: b672 f03d 6e8d 2d3e ea89 3abd eb08 953e
00000350: 80a4 3ebd cfab b7bd f940 0ebf 04b8 9fbd
00000360: c690 0b3e 9369 b3bd f0ef 0b3e 9215 df3c
00000370: 39d7 873d 9cb5 f43d d0f1 363e 3687 9ebe
00000380: fb68 ddbd 7f27 20be 35f7 23be 6701 9ebe
00000390: 44df 93be bc63 a3bd d25f 4abc a9ec b3be
000003a0: 532f 383d cc0e 2fbe 9c0f dabd 01b7 203e
000003b0: 7ecf 423e 6eec 973d 56f8 0e3d 89ae 93bc
000003c0: 6a6f b33d 193a 69bd c4f4 343e fe91 4bbe
000003d0: aa2c 833d a277 803e c407 6bbe 8640 8cbe
000003e0: acf4 aabd bc55 0b3e 0b23 cfbd 34bd 1abe
000003f0: 05b6 f3bd aeda df3d 764a 573e ecbc 013d
0.17625971 -0.16926473 -0.1719459 0.027992181 -0.3921932 0.003839504 -0.41322955 0.010695874
0.12644164 -0.37135196 -0.18058571 -0.02701876 0.105551325 0.2657099 -0.010517406 0.21607693
-0.18421191 0.071931824 -0.07237228 -0.053782664 -0.21217892 -0.09013381 -0.0807991 -0.015680924
0.17834936 -0.2020757 0.0045701633 -0.105314694 -0.21022263 -0.13411784 -0.03594247 -0.041702196
-0.526075 0.061159313 0.42910197 0.07038629 -0.21277507 0.06831067 -0.121823765 -0.37539402
-0.09837768 -0.06698174 -0.18574785 0.26328492 0.23832306 0.18153721 -0.08295564 0.059008528
-0.080920376 0.103603035 -0.25398606 -0.19407217 0.013023618 -0.0076884823 0.025677314 0.0014421969
0.19890553 0.013263513 0.13139364 0.21159522 -0.06581392 -0.0294339 0.07295406 -0.03093063
0.01794184 -0.19153038 0.1036205 0.16017169 -0.004121602 -0.067188874 0.048754673 0.20592576
-0.21658021 -0.17781302 0.013201988 0.14711495 0.17423564 0.14782363 0.16754353 -0.1509305
-0.050684564 -0.26564646 0.311287 0.07042604 -0.37734756 -0.2825332 -0.38517144 0.17271467
0.20164934 -0.0020140128 0.043063812 0.2836966 -0.4075542 -0.084626496 0.12131017 -0.059018977
-0.02589664 0.27535155 0.0075028394 0.22422469 0.21230598 0.1708127 -0.1308039 -0.2805647
0.22540097 -0.20711458 -0.0617453 0.039037142 0.015026531 -0.16297904 0.22641446 -0.039202385
0.22474858 0.086527884 -0.13844971 -0.40255314 0.12292755 -0.29028347 0.31513405 -0.122888595
0.07610658 -0.19765863 -0.14081441 -0.4861983 0.098860204 -0.022160983 0.0599944 0.054689933
0.1576769 0.21669969 0.20151104 -0.3372869 0.15517661 0.09002642 -0.09340616 -0.17622457
0.031832978 -0.17129855 -0.15833068 0.18138246 -0.118621364 -0.29982764 0.0907408 -0.035896435
0.06799468 0.0020558855 -0.18311359 -0.035159215 0.08928803 0.07398607 0.12666085 0.08010392
-0.20011021 -0.058915395 -0.010444969 -0.38268685 -0.04616017 0.15480405 0.15286738 0.11822909
0.04019235 -0.264613 -0.057423435 0.2698126 -0.09777145 0.14009444 -0.1363515 0.14694208
-0.26405933 0.07748852 -0.1344016 0.03913937 -0.16393515 -0.07263624 0.24512157 -0.18546747
-0.091998786 0.16169594 0.06479255 -0.026760923 0.20170142 -0.3626267 -0.28813747 0.052159086
-0.076144286 -0.3294554 -0.1900996 -0.13641365 -0.025299752 -0.022842549 -0.25468665 0.08373322
-0.24501461 0.05494174 -0.09791288 0.05610305 0.07812508 -0.26756275 0.11222911 0.064967714
-0.30835736 0.034650393 0.05372251 -0.24642916 0.014182071 0.07818814 0.13959982 -0.1456941
0.117406294 0.16948482 -0.04554168 0.29108366 -0.0465436 -0.08968317 -0.5556789 -0.0779877
0.13629445 -0.08760371 0.13665748 0.027231965 0.06632847 0.11948702 0.17865682 -0.30962533
-0.10811039 -0.15640067 -0.16012271 -0.30860445 -0.28881276 -0.07978007 -0.012351947 -0.35141495
0.044967007 -0.17095488 -0.106475085 0.1569481 0.19024464 0.07418142 0.0349048 -0.01802756
0.08761485 -0.056940172 0.17671496 -0.1987991 0.06405003 0.25091273 -0.22952181 -0.27392977
-0.08347449 0.13606924 -0.10114106 -0.15111238 -0.11899952 0.10930382 0.21024498 0.03167431

layers.1.0.bias f4 [64]
00000000: 5ab2 123e ff20 7fbe 4b06 c2bd 7a8c c93e
00000010: fc0b 393d a4d7 4bbb 3a8c 6c3d b47c 043e
00000020: 3f56 183e fdd6 98bd 469d e7bd d9bf a53e
00000030: bd14 35be 6f96 463e 2577 893e 3d0e 2abe
00000040: 734b 573d 9297 f63c a98f 8c3e 1d2a 403e
00000050: 9125 f6bd d951 123c b178 b23d 5963 a3bd
00000060: 1aa2 d43d c2e1 5cbe ee18 fcbd 927b 3dbe
00000070: 58c2 8d3c 7b54 5bbe ac5f 8d3e 84ec 953e
00000080: d1bf 59be 69be b33d dd53 8b3d 3c50 1dbe
00000090: 80ae 3e3e c441 953e 6456 083d 12c4 973d
000000a0: 61ff 38be c9d3 b1be 8405 6f3e 4196 09be
000000b0: 1484 9cbe 9cbc 413d 9e26 84bd ba42 7a3e
000000c0: 06ca 583e 1abc e93e 814f ef3c d90c 493d
000000d0: 35f4 b8bd 8629 88be aa4e bd3e 11f1 ba3e
000000e0: b82e fd3e 4ae8 acbe 5603 15be c68e a5bc
000000f0: 13ec 2a3f 311b 823e 0ee4 88bd 56af 8b3e
0.14325848 -0.24914931 -0.094738565 0.39364988 0.045177445 -0.0031103874 0.057750918 0.12938195
0.1487665 -0.07462881 -0.113092944 0.3237293 -0.17683692 0.19393323 0.26848713 -0.16606994
0.05256219 0.030101571 0.27453354 0.18766065 -0.12018884 0.008930647 0.08714426 -0.079779334
0.10382481 -0.21570495 -0.123094425 -0.1850417 0.017304584 -0.21418945 0.27612054 0.2928201
-0.21264578 0.08776552 0.06803105 -0.15362638 0.18621254 0.29151738 0.033285514 0.07410444
-0.1806617 -0.34731892 0.23341948 -0.13436224 -0.30569518 0.047299013 -0.06452678 0.24439517
0.21170816 0.45651323 0.029212715 0.049084518 -0.09030954 -0.2659418 0.36974078 0.36512044
0.49449706 -0.33770972 -0.14552054 -0.020209681 0.6676647 0.2541137 -0.06684123 0.27282208

layers.1.1.weight f4 [64]
00000000: 7edb 893f 2f13 6e3f b54c 843f ab0c 543f
00000010: da03 693f ea5a 733f 84f2 763f 5185 5d3f
00000020: 2426 5a3f b33d 823f 79b8 673f 6c4f 493f
00000030: 56dc 933f e1ad 6a3f 2098 5a3f 3274 813f
00000040: 3e2f 763f 6b97 813f 3213 553f 5ff6 433f
00000050: 70be 883f c169 813f 41c8 663f 2a2f 8f3f
00000060: f405 683f 84d1 883f c884 603f 7cb3 8f3f
00000070: 4633 703f 7c31 8b3f 31c4 843f 7b7a 4a3f
00000080: 3d8c 883f fca1 663f 6ae1 583f 74fc 8a3f
00000090: 7abf 413f a8c0 543f 9349 823f cb38 763f
000000a0: 0c63 7e3f 7a90 963f ec38 653f 0eb6 863f
000000b0: 12ee 873f 8470 543f 56ec 943f 64ae 843f
000000c0: 39d0 573f 5d2f 583f 7fe7 723f f127 8c3f
000000d0: 4d9a 603f 3e6c 913f a0fa 5f3f 1a9c 4a3f
000000e0: b892 5d3f ac87 9a3f ab83 893f 1493 7f3f
000000f0: dd4c 523f fd1a 7d3f 0964 603f 7aea 643f
1.0770109 0.9299802 1.0335909 0.8283183 0.910215 0.950606 0.964638 0.8653155
0.8521445 1.0175079 0.9051586 0.78636813 1.1551616 0.9167157 0.85388374 1.0113585
0.96165836 1.0124334 0.83232415 0.7654781 1.0683117 1.0110399 0.90149313 1.1186268
0.90634084 1.0688939 0.8770261 1.1226649 0.9382824 1.0874476 1.0372373 0.7909314
1.0667797 0.9009092 0.84718955 1.0858293 0.75682795 0.8310647 1.0178703 0.9618041
0.99369884 1.1762841 0.8953998 1.0524309 1.0619528 0.82984185 1.1634624 1.036572
0.843021 0.8444727 0.94884485 1.0949689 0.87735444 1.1361158 0.874918 0.7914444
0.86552 1.2072654 1.0743307 0.998338 0.82148534 0.98869306 0.8765264 0.8942028
